…
 block1d_drop (Dropout)         (None, 128, 128, 32  0           ['block1d_project_activation[0][0
                                )                                ]']                              
                                                                                                  
 block1d_add (Add)              (None, 128, 128, 32  0           ['block1d_drop[0][0]',           
                                )                                 'block1c_add[0][0]']            
                                                                                                  
 block2a_expand_conv (Conv2D)   (None, 64, 64, 128)  36864       ['block1d_add[0][0]']            
                                                                                                  
 block2a_expand_bn (BatchNormal  (None, 64, 64, 128)  512        ['block2a_expand_conv[0][0]']    
 ization)                                                                                         
                                                                                                  
 block2a_expand_activation (Act  (None, 64, 64, 128)  0          ['block2a_expand_bn[0][0]']      
 ivation)                                                                                         
                                                                                                  
 block2a_project_conv (Conv2D)  (None, 64, 64, 64)   8192        ['block2a_expand_activation[0][0]
                                                                 ']                               
                                                                                                  
 block2a_project_bn (BatchNorma  (None, 64, 64, 64)  256         ['block2a_project_conv[0][0]']   
 lization)                                                                                        
                                                                                                  
 block2b_expand_conv (Conv2D)   (None, 64, 64, 256)  147456      ['block2a_project_bn[0][0]']     
                                                                                                  
 block2b_expand_bn (BatchNormal  (None, 64, 64, 256)  1024       ['block2b_expand_conv[0][0]']    
 ization)                                                                                         
                                                                                                  
 block2b_expand_activation (Act  (None, 64, 64, 256)  0          ['block2b_expand_bn[0][0]']      
 ivation)                                                                                         
                                                                                                  
 block2b_project_conv (Conv2D)  (None, 64, 64, 64)   16384       ['block2b_expand_activation[0][0]
                                                                 ']                               
                                                                                                  
 block2b_project_bn (BatchNorma  (None, 64, 64, 64)  256         ['block2b_project_conv[0][0]']   
 lization)                                                                                        
                                                                                                  
 block2b_drop (Dropout)         (None, 64, 64, 64)   0           ['block2b_project_bn[0][0]']     
                                                                                                  
 block2b_add (Add)              (None, 64, 64, 64)   0           ['block2b_drop[0][0]',           
                                                                  'block2a_project_bn[0][0]']     
                                                                                                  
 block2c_expand_conv (Conv2D)   (None, 64, 64, 256)  147456      ['block2b_add[0][0]']            
                                                                                                  
 block2c_expand_bn (BatchNormal  (None, 64, 64, 256)  1024       ['block2c_expand_conv[0][0]']    
 ization)                                                                                         
                                                                                                  
 block2c_expand_activation (Act  (None, 64, 64, 256)  0          ['block2c_expand_bn[0][0]']      
 ivation)                                                                                         
                                                                                                  
 block2c_project_conv (Conv2D)  (None, 64, 64, 64)   16384       ['block2c_expand_activation[0][0]
                                                                 ']                               
                                                                                                  
 block2c_project_bn (BatchNorma  (None, 64, 64, 64)  256         ['block2c_project_conv[0][0]']   
 lization)                                                                                        
                                                                                                  
 block2c_drop (Dropout)         (None, 64, 64, 64)   0           ['block2c_project_bn[0][0]']     
                                                                                                  
 block2c_add (Add)              (None, 64, 64, 64)   0           ['block2c_drop[0][0]',           
                                                                  'block2b_add[0][0]']            
                                                                                                  
 block2d_expand_conv (Conv2D)   (None, 64, 64, 256)  147456      ['block2c_add[0][0]']            
                                                                                                  
 block2d_expand_bn (BatchNormal  (None, 64, 64, 256)  1024       ['block2d_expand_conv[0][0]']    
 ization)                                                                                         
                                                                                                  
 block2d_expand_activation (Act  (None, 64, 64, 256)  0          ['block2d_expand_bn[0][0]']      
 ivation)                                                                                         
                                                                                                  
 block2d_project_conv (Conv2D)  (None, 64, 64, 64)   16384       ['block2d_expand_activation[0][0]
                                                                 ']                               
                                                                                                  
 block2d_project_bn (BatchNorma  (None, 64, 64, 64)  256         ['block2d_project_conv[0][0]']   
 lization)                                                                                        
                                                                                                  
 block2d_drop (Dropout)         (None, 64, 64, 64)   0           ['block2d_project_bn[0][0]']     
                                                                                                  
 block2d_add (Add)              (None, 64, 64, 64)   0           ['block2d_drop[0][0]',           
                                                                  'block2c_add[0][0]']            
                                                                                                  
 block2e_expand_conv (Conv2D)   (None, 64, 64, 256)  147456      ['block2d_add[0][0]']            
                                                                                                  
 block2e_expand_bn (BatchNormal  (None, 64, 64, 256)  1024       ['block2e_expand_conv[0][0]']    
 ization)                                                                                         
                                                                                                  
 block2e_expand_activation (Act  (None, 64, 64, 256)  0          ['block2e_expand_bn[0][0]']      
 ivation)                                                                                         
                                                                                                  
 block2e_project_conv (Conv2D)  (None, 64, 64, 64)   16384       ['block2e_expand_activation[0][0]
                                                                 ']                               
                                                                                                  
 block2e_project_bn (BatchNorma  (None, 64, 64, 64)  256         ['block2e_project_conv[0][0]']   
 lization)                                                                                        
                                                                                                  
 block2e_drop (Dropout)         (None, 64, 64, 64)   0           ['block2e_project_bn[0][0]']     
                                                                                                  
 block2e_add (Add)              (None, 64, 64, 64)   0           ['block2e_drop[0][0]',           
                                                                  'block2d_add[0][0]']            
                                                                                                  
 block2f_expand_conv (Conv2D)   (None, 64, 64, 256)  147456      ['block2e_add[0][0]']            
                                                                                                  
 block2f_expand_bn (BatchNormal  (None, 64, 64, 256)  1024       ['block2f_expand_conv[0][0]']    
 ization)                                                                                         
                                                                                                  
 block2f_expand_activation (Act  (None, 64, 64, 256)  0          ['block2f_expand_bn[0][0]']      
 ivation)                                                                                         
                                                                                                  
 block2f_project_conv (Conv2D)  (None, 64, 64, 64)   16384       ['block2f_expand_activation[0][0]
                                                                 ']                               
                                                                                                  
 block2f_project_bn (BatchNorma  (None, 64, 64, 64)  256         ['block2f_project_conv[0][0]']   
 lization)                                                                                        
                                                                                                  
 block2f_drop (Dropout)         (None, 64, 64, 64)   0           ['block2f_project_bn[0][0]']     
                                                                                                  
 block2f_add (Add)              (None, 64, 64, 64)   0           ['block2f_drop[0][0]',           
                                                                  'block2e_add[0][0]']            
                                                                                                  
 block2g_expand_conv (Conv2D)   (None, 64, 64, 256)  147456      ['block2f_add[0][0]']            
                                                                                                  
 block2g_expand_bn (BatchNormal  (None, 64, 64, 256)  1024       ['block2g_expand_conv[0][0]']    
 ization)                                                                                         
                                                                                                  
 block2g_expand_activation (Act  (None, 64, 64, 256)  0          ['block2g_expand_bn[0][0]']      
 ivation)                                                                                         
                                                                                                  
 block2g_project_conv (Conv2D)  (None, 64, 64, 64)   16384       ['block2g_expand_activation[0][0]
                                                                 ']                               
                                                                                                  
 block2g_project_bn (BatchNorma  (None, 64, 64, 64)  256         ['block2g_project_conv[0][0]']   
 lization)                                                                                        
                                                                                                  
 block2g_drop (Dropout)         (None, 64, 64, 64)   0           ['block2g_project_bn[0][0]']     
                                                                                                  
 block2g_add (Add)              (None, 64, 64, 64)   0           ['block2g_drop[0][0]',           
                                                                  'block2f_add[0][0]']            
                                                                                                  
 block3a_expand_conv (Conv2D)   (None, 32, 32, 256)  147456      ['block2g_add[0][0]']            
                                                                                                  
 block3a_expand_bn (BatchNormal  (None, 32, 32, 256)  1024       ['block3a_expand_conv[0][0]']    
 ization)                                                                                         
                                                                                                  
 block3a_expand_activation (Act  (None, 32, 32, 256)  0          ['block3a_expand_bn[0][0]']      
 ivation)                                                                                         
                                                                                                  
 block3a_project_conv (Conv2D)  (None, 32, 32, 96)   24576       ['block3a_expand_activation[0][0]
                                                                 ']                               
                                                                                                  
 block3a_project_bn (BatchNorma  (None, 32, 32, 96)  384         ['block3a_project_conv[0][0]']   
 lization)                                                                                        
                                                                                                  
 block3b_expand_conv (Conv2D)   (None, 32, 32, 384)  331776      ['block3a_project_bn[0][0]']     
                                                                                                  
 block3b_expand_bn (BatchNormal  (None, 32, 32, 384)  1536       ['block3b_expand_conv[0][0]']    
 ization)                                                                                         
                                                                                                  
 block3b_expand_activation (Act  (None, 32, 32, 384)  0          ['block3b_expand_bn[0][0]']      
 ivation)                                                                                         
                                                                                                  
 block3b_project_conv (Conv2D)  (None, 32, 32, 96)   36864       ['block3b_expand_activation[0][0]
                                                                 ']                               
                                                                                                  
 block3b_project_bn (BatchNorma  (None, 32, 32, 96)  384         ['block3b_project_conv[0][0]']   
 lization)                                                                                        
                                                                                                  
 block3b_drop (Dropout)         (None, 32, 32, 96)   0           ['block3b_project_bn[0][0]']     
                                                                                                  
 block3b_add (Add)              (None, 32, 32, 96)   0           ['block3b_drop[0][0]',           
                                                                  'block3a_project_bn[0][0]']     
                                                                                                  
 block3c_expand_conv (Conv2D)   (None, 32, 32, 384)  331776      ['block3b_add[0][0]']            
                                                                                                  
 block3c_expand_bn (BatchNormal  (None, 32, 32, 384)  1536       ['block3c_expand_conv[0][0]']    
 ization)                                                                                         
                                                                                                  
 block3c_expand_activation (Act  (None, 32, 32, 384)  0          ['block3c_expand_bn[0][0]']      
 ivation)                                                                                         
                                                                                                  
 block3c_project_conv (Conv2D)  (None, 32, 32, 96)   36864       ['block3c_expand_activation[0][0]
                                                                 ']                               
                                                                                                  
 block3c_project_bn (BatchNorma  (None, 32, 32, 96)  384         ['block3c_project_conv[0][0]']   
 lization)                                                                                        
                                                                                                  
 block3c_drop (Dropout)         (None, 32, 32, 96)   0           ['block3c_project_bn[0][0]']     
                                                                                                  
 block3c_add (Add)              (None, 32, 32, 96)   0           ['block3c_drop[0][0]',           
                                                                  'block3b_add[0][0]']            
                                                                                                  
 block3d_expand_conv (Conv2D)   (None, 32, 32, 384)  331776      ['block3c_add[0][0]']            
                                                                                                  
 block3d_expand_bn (BatchNormal  (None, 32, 32, 384)  1536       ['block3d_expand_conv[0][0]']    
 ization)                                                                                         
                                                                                                  
 block3d_expand_activation (Act  (None, 32, 32, 384)  0          ['block3d_expand_bn[0][0]']      
 ivation)                                                                                         
                                                                                                  
 block3d_project_conv (Conv2D)  (None, 32, 32, 96)   36864       ['block3d_expand_activation[0][0]
                                                                 ']                               
                                                                                                  
 block3d_project_bn (BatchNorma  (None, 32, 32, 96)  384         ['block3d_project_conv[0][0]']   
 lization)                                                                                        
                                                                                                  
 block3d_drop (Dropout)         (None, 32, 32, 96)   0           ['block3d_project_bn[0][0]']     
                                                                                                  
 block3d_add (Add)              (None, 32, 32, 96)   0           ['block3d_drop[0][0]',           
                                                                  'block3c_add[0][0]']            
                                                                                                  
 block3e_expand_conv (Conv2D)   (None, 32, 32, 384)  331776      ['block3d_add[0][0]']            
                                                                                                  
 block3e_expand_bn (BatchNormal  (None, 32, 32, 384)  1536       ['block3e_expand_conv[0][0]']    
 ization)                                                                                         
                                                                                                  
 block3e_expand_activation (Act  (None, 32, 32, 384)  0          ['block3e_expand_bn[0][0]']      
 ivation)                                                                                         
                                                                                                  
 block3e_project_conv (Conv2D)  (None, 32, 32, 96)   36864       ['block3e_expand_activation[0][0]
                                                                 ']                               
                                                                                                  
 block3e_project_bn (BatchNorma  (None, 32, 32, 96)  384         ['block3e_project_conv[0][0]']   
 lization)                                                                                        
                                                                                                  
 block3e_drop (Dropout)         (None, 32, 32, 96)   0           ['block3e_project_bn[0][0]']     
                                                                                                  
 block3e_add (Add)              (None, 32, 32, 96)   0           ['block3e_drop[0][0]',           
                                                                  'block3d_add[0][0]']            
                                                                                                  
 block3f_expand_conv (Conv2D)   (None, 32, 32, 384)  331776      ['block3e_add[0][0]']            
                                                                                                  
 block3f_expand_bn (BatchNormal  (None, 32, 32, 384)  1536       ['block3f_expand_conv[0][0]']    
 ization)                                                                                         
                                                                                                  
 block3f_expand_activation (Act  (None, 32, 32, 384)  0          ['block3f_expand_bn[0][0]']      
 ivation)                                                                                         
                                                                                                  
 block3f_project_conv (Conv2D)  (None, 32, 32, 96)   36864       ['block3f_expand_activation[0][0]
                                                                 ']                               
                                                                                                  
 block3f_project_bn (BatchNorma  (None, 32, 32, 96)  384         ['block3f_project_conv[0][0]']   
 lization)                                                                                        
                                                                                                  
 block3f_drop (Dropout)         (None, 32, 32, 96)   0           ['block3f_project_bn[0][0]']     
                                                                                                  
 block3f_add (Add)              (None, 32, 32, 96)   0           ['block3f_drop[0][0]',           
                                                                  'block3e_add[0][0]']            
                                                                                                  
 block3g_expand_conv (Conv2D)   (None, 32, 32, 384)  331776      ['block3f_add[0][0]']            
                                                                                                  
 block3g_expand_bn (BatchNormal  (None, 32, 32, 384)  1536       ['block3g_expand_conv[0][0]']    
 ization)                                                                                         
                                                                                                  
 block3g_expand_activation (Act  (None, 32, 32, 384)  0          ['block3g_expand_bn[0][0]']      
 ivation)                                                                                         
                                                                                                  
 block3g_project_conv (Conv2D)  (None, 32, 32, 96)   36864       ['block3g_expand_activation[0][0]
                                                                 ']                               
                                                                                                  
 block3g_project_bn (BatchNorma  (None, 32, 32, 96)  384         ['block3g_project_conv[0][0]']   
 lization)                                                                                        
                                                                                                  
 block3g_drop (Dropout)         (None, 32, 32, 96)   0           ['block3g_project_bn[0][0]']     
                                                                                                  
 block3g_add (Add)              (None, 32, 32, 96)   0           ['block3g_drop[0][0]',           
                                                                  'block3f_add[0][0]']            
                                                                                                  
 block4a_expand_conv (Conv2D)   (None, 32, 32, 384)  36864       ['block3g_add[0][0]']            
                                                                                                  
 block4a_expand_bn (BatchNormal  (None, 32, 32, 384)  1536       ['block4a_expand_conv[0][0]']    
 ization)                                                                                         
                                                                                                  
 block4a_expand_activation (Act  (None, 32, 32, 384)  0          ['block4a_expand_bn[0][0]']      
 ivation)                                                                                         
                                                                                                  
 block4a_dwconv2 (DepthwiseConv  (None, 16, 16, 384)  3456       ['block4a_expand_activation[0][0]
 2D)                                                             ']                               
                                                                                                  
 block4a_bn (BatchNormalization  (None, 16, 16, 384)  1536       ['block4a_dwconv2[0][0]']        
 )                                                                                                
                                                                                                  
 block4a_activation (Activation  (None, 16, 16, 384)  0          ['block4a_bn[0][0]']             
 )                                                                                                
                                                                                                  
 block4a_se_squeeze (GlobalAver  (None, 384)         0           ['block4a_activation[0][0]']     
 agePooling2D)                                                                                    
                                                                                                  
 block4a_se_reshape (Reshape)   (None, 1, 1, 384)    0           ['block4a_se_squeeze[0][0]']     
                                                                                                  
 block4a_se_reduce (Conv2D)     (None, 1, 1, 24)     9240        ['block4a_se_reshape[0][0]']     
                                                                                                  
 block4a_se_expand (Conv2D)     (None, 1, 1, 384)    9600        ['block4a_se_reduce[0][0]']      
                                                                                                  
 block4a_se_excite (Multiply)   (None, 16, 16, 384)  0           ['block4a_activation[0][0]',     
                                                                  'block4a_se_expand[0][0]']      
                                                                                                  
 block4a_project_conv (Conv2D)  (None, 16, 16, 192)  73728       ['block4a_se_excite[0][0]']      
                                                                                                  
 block4a_project_bn (BatchNorma  (None, 16, 16, 192)  768        ['block4a_project_conv[0][0]']   
 lization)                                                                                        
                                                                                                  
 block4b_expand_conv (Conv2D)   (None, 16, 16, 768)  147456      ['block4a_project_bn[0][0]']     
                                                                                                  
 block4b_expand_bn (BatchNormal  (None, 16, 16, 768)  3072       ['block4b_expand_conv[0][0]']    
 ization)                                                                                         
                                                                                                  
 block4b_expand_activation (Act  (None, 16, 16, 768)  0          ['block4b_expand_bn[0][0]']      
 ivation)                                                                                         
                                                                                                  
 block4b_dwconv2 (DepthwiseConv  (None, 16, 16, 768)  6912       ['block4b_expand_activation[0][0]
 2D)                                                             ']                               
                                                                                                  
 block4b_bn (BatchNormalization  (None, 16, 16, 768)  3072       ['block4b_dwconv2[0][0]']        
 )                                                                                                
                                                                                                  
 block4b_activation (Activation  (None, 16, 16, 768)  0          ['block4b_bn[0][0]']             
 )                                                                                                
                                                                                                  
 block4b_se_squeeze (GlobalAver  (None, 768)         0           ['block4b_activation[0][0]']     
 agePooling2D)                                                                                    
                                                                                                  
 block4b_se_reshape (Reshape)   (None, 1, 1, 768)    0           ['block4b_se_squeeze[0][0]']     
                                                                                                  
 block4b_se_reduce (Conv2D)     (None, 1, 1, 48)     36912       ['block4b_se_reshape[0][0]']     
                                                                                                  
 block4b_se_expand (Conv2D)     (None, 1, 1, 768)    37632       ['block4b_se_reduce[0][0]']      
                                                                                                  
 block4b_se_excite (Multiply)   (None, 16, 16, 768)  0           ['block4b_activation[0][0]',     
                                                                  'block4b_se_expand[0][0]']      
                                                                                                  
 block4b_project_conv (Conv2D)  (None, 16, 16, 192)  147456      ['block4b_se_excite[0][0]']      
                                                                                                  
 block4b_project_bn (BatchNorma  (None, 16, 16, 192)  768        ['block4b_project_conv[0][0]']   
 lization)                                                                                        
                                                                                                  
 block4b_drop (Dropout)         (None, 16, 16, 192)  0           ['block4b_project_bn[0][0]']     
                                                                                                  
 block4b_add (Add)              (None, 16, 16, 192)  0           ['block4b_drop[0][0]',           
                                                                  'block4a_project_bn[0][0]']     
                                                                                                  
 block4c_expand_conv (Conv2D)   (None, 16, 16, 768)  147456      ['block4b_add[0][0]']            
                                                                                                  
 block4c_expand_bn (BatchNormal  (None, 16, 16, 768)  3072       ['block4c_expand_conv[0][0]']    
 ization)                                                                                         
                                                                                                  
 block4c_expand_activation (Act  (None, 16, 16, 768)  0          ['block4c_expand_bn[0][0]']      
 ivation)                                                                                         
                                                                                                  
 block4c_dwconv2 (DepthwiseConv  (None, 16, 16, 768)  6912       ['block4c_expand_activation[0][0]
 2D)                                                             ']                               
                                                                                                  
 block4c_bn (BatchNormalization  (None, 16, 16, 768)  3072       ['block4c_dwconv2[0][0]']        
 )                                                                                                
                                                                                                  
 block4c_activation (Activation  (None, 16, 16, 768)  0          ['block4c_bn[0][0]']             
 )                                                                                                
                                                                                                  
 block4c_se_squeeze (GlobalAver  (None, 768)         0           ['block4c_activation[0][0]']     
 agePooling2D)                                                                                    
                                                                                                  
 block4c_se_reshape (Reshape)   (None, 1, 1, 768)    0           ['block4c_se_squeeze[0][0]']     
                                                                                                  
 block4c_se_reduce (Conv2D)     (None, 1, 1, 48)     36912       ['block4c_se_reshape[0][0]']     
                                                                                                  
 block4c_se_expand (Conv2D)     (None, 1, 1, 768)    37632       ['block4c_se_reduce[0][0]']      
                                                                                                  
 block4c_se_excite (Multiply)   (None, 16, 16, 768)  0           ['block4c_activation[0][0]',     
                                                                  'block4c_se_expand[0][0]']      
                                                                                                  
 block4c_project_conv (Conv2D)  (None, 16, 16, 192)  147456      ['block4c_se_excite[0][0]']      
                                                                                                  
 block4c_project_bn (BatchNorma  (None, 16, 16, 192)  768        ['block4c_project_conv[0][0]']   
 lization)                                                                                        
                                                                                                  
 block4c_drop (Dropout)         (None, 16, 16, 192)  0           ['block4c_project_bn[0][0]']     
                                                                                                  
 block4c_add (Add)              (None, 16, 16, 192)  0           ['block4c_drop[0][0]',           
                                                                  'block4b_add[0][0]']            
                                                                                                  
 block4d_expand_conv (Conv2D)   (None, 16, 16, 768)  147456      ['block4c_add[0][0]']            
                                                                                                  
 block4d_expand_bn (BatchNormal  (None, 16, 16, 768)  3072       ['block4d_expand_conv[0][0]']    
 ization)                                                                                         
                                                                                                  
 block4d_expand_activation (Act  (None, 16, 16, 768)  0          ['block4d_expand_bn[0][0]']      
 ivation)                                                                                         
                                                                                                  
 block4d_dwconv2 (DepthwiseConv  (None, 16, 16, 768)  6912       ['block4d_expand_activation[0][0]
 2D)                                                             ']                               
                                                                                                  
 block4d_bn (BatchNormalization  (None, 16, 16, 768)  3072       ['block4d_dwconv2[0][0]']        
 )                                                                                                
                                                                                                  
 block4d_activation (Activation  (None, 16, 16, 768)  0          ['block4d_bn[0][0]']             
 )                                                                                                
                                                                                                  
 block4d_se_squeeze (GlobalAver  (None, 768)         0           ['block4d_activation[0][0]']     
 agePooling2D)                                                                                    
                                                                                                  
 block4d_se_reshape (Reshape)   (None, 1, 1, 768)    0           ['block4d_se_squeeze[0][0]']     
                                                                                                  
 block4d_se_reduce (Conv2D)     (None, 1, 1, 48)     36912       ['block4d_se_reshape[0][0]']     
                                                                                                  
 block4d_se_expand (Conv2D)     (None, 1, 1, 768)    37632       ['block4d_se_reduce[0][0]']      
                                                                                                  
 block4d_se_excite (Multiply)   (None, 16, 16, 768)  0           ['block4d_activation[0][0]',     
                                                                  'block4d_se_expand[0][0]']      
                                                                                                  
 block4d_project_conv (Conv2D)  (None, 16, 16, 192)  147456      ['block4d_se_excite[0][0]']      
                                                                                                  
 block4d_project_bn (BatchNorma  (None, 16, 16, 192)  768        ['block4d_project_conv[0][0]']   
 lization)                                                                                        
                                                                                                  
 block4d_drop (Dropout)         (None, 16, 16, 192)  0           ['block4d_project_bn[0][0]']     
                                                                                                  
 block4d_add (Add)              (None, 16, 16, 192)  0           ['block4d_drop[0][0]',           
                                                                  'block4c_add[0][0]']            
                                                                                                  
 block4e_expand_conv (Conv2D)   (None, 16, 16, 768)  147456      ['block4d_add[0][0]']            
                                                                                                  
 block4e_expand_bn (BatchNormal  (None, 16, 16, 768)  3072       ['block4e_expand_conv[0][0]']    
 ization)                                                                                         
                                                                                                  
 block4e_expand_activation (Act  (None, 16, 16, 768)  0          ['block4e_expand_bn[0][0]']      
 ivation)                                                                                         
                                                                                                  
 block4e_dwconv2 (DepthwiseConv  (None, 16, 16, 768)  6912       ['block4e_expand_activation[0][0]
 2D)                                                             ']                               
                                                                                                  
 block4e_bn (BatchNormalization  (None, 16, 16, 768)  3072       ['block4e_dwconv2[0][0]']        
 )                                                                                                
                                                                                                  
 block4e_activation (Activation  (None, 16, 16, 768)  0          ['block4e_bn[0][0]']             
 )                                                                                                
                                                                                                  
 block4e_se_squeeze (GlobalAver  (None, 768)         0           ['block4e_activation[0][0]']     
 agePooling2D)                                                                                    
                                                                                                  
 block4e_se_reshape (Reshape)   (None, 1, 1, 768)    0           ['block4e_se_squeeze[0][0]']     
                                                                                                  
 block4e_se_reduce (Conv2D)     (None, 1, 1, 48)     36912       ['block4e_se_reshape[0][0]']     
                                                                                                  
 block4e_se_expand (Conv2D)     (None, 1, 1, 768)    37632       ['block4e_se_reduce[0][0]']      
                                                                                                  
 block4e_se_excite (Multiply)   (None, 16, 16, 768)  0           ['block4e_activation[0][0]',     
                                                                  'block4e_se_expand[0][0]']      
                                                                                                  
 block4e_project_conv (Conv2D)  (None, 16, 16, 192)  147456      ['block4e_se_excite[0][0]']      
                                                                                                  
 block4e_project_bn (BatchNorma  (None, 16, 16, 192)  768        ['block4e_project_conv[0][0]']   
 lization)                                                                                        
                                                                                                  
 block4e_drop (Dropout)         (None, 16, 16, 192)  0           ['block4e_project_bn[0][0]']     
                                                                                                  
 block4e_add (Add)              (None, 16, 16, 192)  0           ['block4e_drop[0][0]',           
                                                                  'block4d_add[0][0]']            
                                                                                                  
 block4f_expand_conv (Conv2D)   (None, 16, 16, 768)  147456      ['block4e_add[0][0]']            
                                                                                                  
 block4f_expand_bn (BatchNormal  (None, 16, 16, 768)  3072       ['block4f_expand_conv[0][0]']    
 ization)                                                                                         
                                                                                                  
 block4f_expand_activation (Act  (None, 16, 16, 768)  0          ['block4f_expand_bn[0][0]']      
 ivation)                                                                                         
                                                                                                  
 block4f_dwconv2 (DepthwiseConv  (None, 16, 16, 768)  6912       ['block4f_expand_activation[0][0]
 2D)                                                             ']                               
                                                                                                  
 block4f_bn (BatchNormalization  (None, 16, 16, 768)  3072       ['block4f_dwconv2[0][0]']        
 )                                                                                                
                                                                                                  
 block4f_activation (Activation  (None, 16, 16, 768)  0          ['block4f_bn[0][0]']             
 )                                                                                                
                                                                                                  
 block4f_se_squeeze (GlobalAver  (None, 768)         0           ['block4f_activation[0][0]']     
 agePooling2D)                                                                                    
                                                                                                  
 block4f_se_reshape (Reshape)   (None, 1, 1, 768)    0           ['block4f_se_squeeze[0][0]']     
                                                                                                  
 block4f_se_reduce (Conv2D)     (None, 1, 1, 48)     36912       ['block4f_se_reshape[0][0]']     
                                                                                                  
 block4f_se_expand (Conv2D)     (None, 1, 1, 768)    37632       ['block4f_se_reduce[0][0]']      
                                                                                                  
 block4f_se_excite (Multiply)   (None, 16, 16, 768)  0           ['block4f_activation[0][0]',     
                                                                  'block4f_se_expand[0][0]']      
                                                                                                  
 block4f_project_conv (Conv2D)  (None, 16, 16, 192)  147456      ['block4f_se_excite[0][0]']      
                                                                                                  
 block4f_project_bn (BatchNorma  (None, 16, 16, 192)  768        ['block4f_project_conv[0][0]']   
 lization)                                                                                        
                                                                                                  
 block4f_drop (Dropout)         (None, 16, 16, 192)  0           ['block4f_project_bn[0][0]']     
                                                                                                  
 block4f_add (Add)              (None, 16, 16, 192)  0           ['block4f_drop[0][0]',           
                                                                  'block4e_add[0][0]']            
                                                                                                  
 block4g_expand_conv (Conv2D)   (None, 16, 16, 768)  147456      ['block4f_add[0][0]']            
                                                                                                  
 block4g_expand_bn (BatchNormal  (None, 16, 16, 768)  3072       ['block4g_expand_conv[0][0]']    
 ization)                                                                                         
                                                                                                  
 block4g_expand_activation (Act  (None, 16, 16, 768)  0          ['block4g_expand_bn[0][0]']      
 ivation)                                                                                         
                                                                                                  
 block4g_dwconv2 (DepthwiseConv  (None, 16, 16, 768)  6912       ['block4g_expand_activation[0][0]
 2D)                                                             ']                               
                                                                                                  
 block4g_bn (BatchNormalization  (None, 16, 16, 768)  3072       ['block4g_dwconv2[0][0]']        
 )                                                                                                
                                                                                                  
 block4g_activation (Activation  (None, 16, 16, 768)  0          ['block4g_bn[0][0]']             
 )                                                                                                
                                                                                                  
 block4g_se_squeeze (GlobalAver  (None, 768)         0           ['block4g_activation[0][0]']     
 agePooling2D)                                                                                    
                                                                                                  
 block4g_se_reshape (Reshape)   (None, 1, 1, 768)    0           ['block4g_se_squeeze[0][0]']     
                                                                                                  
 block4g_se_reduce (Conv2D)     (None, 1, 1, 48)     36912       ['block4g_se_reshape[0][0]']     
                                                                                                  
 block4g_se_expand (Conv2D)     (None, 1, 1, 768)    37632       ['block4g_se_reduce[0][0]']      
                                                                                                  
 block4g_se_excite (Multiply)   (None, 16, 16, 768)  0           ['block4g_activation[0][0]',     
                                                                  'block4g_se_expand[0][0]']      
                                                                                                  
 block4g_project_conv (Conv2D)  (None, 16, 16, 192)  147456      ['block4g_se_excite[0][0]']      
                                                                                                  
 block4g_project_bn (BatchNorma  (None, 16, 16, 192)  768        ['block4g_project_conv[0][0]']   
 lization)                                                                                        
                                                                                                  
 block4g_drop (Dropout)         (None, 16, 16, 192)  0           ['block4g_project_bn[0][0]']     
                                                                                                  
 block4g_add (Add)              (None, 16, 16, 192)  0           ['block4g_drop[0][0]',           
                                                                  'block4f_add[0][0]']            
                                                                                                  
 block4h_expand_conv (Conv2D)   (None, 16, 16, 768)  147456      ['block4g_add[0][0]']            
                                                                                                  
 block4h_expand_bn (BatchNormal  (None, 16, 16, 768)  3072       ['block4h_expand_conv[0][0]']    
 ization)                                                                                         
                                                                                                  
 block4h_expand_activation (Act  (None, 16, 16, 768)  0          ['block4h_expand_bn[0][0]']      
 ivation)                                                                                         
                                                                                                  
 block4h_dwconv2 (DepthwiseConv  (None, 16, 16, 768)  6912       ['block4h_expand_activation[0][0]
 2D)                                                             ']                               
                                                                                                  
 block4h_bn (BatchNormalization  (None, 16, 16, 768)  3072       ['block4h_dwconv2[0][0]']        
 )                                                                                                
                                                                                                  
 block4h_activation (Activation  (None, 16, 16, 768)  0          ['block4h_bn[0][0]']             
 )                                                                                                
                                                                                                  
 block4h_se_squeeze (GlobalAver  (None, 768)         0           ['block4h_activation[0][0]']     
 agePooling2D)                                                                                    
                                                                                                  
 block4h_se_reshape (Reshape)   (None, 1, 1, 768)    0           ['block4h_se_squeeze[0][0]']     
                                                                                                  
 block4h_se_reduce (Conv2D)     (None, 1, 1, 48)     36912       ['block4h_se_reshape[0][0]']     
                                                                                                  
 block4h_se_expand (Conv2D)     (None, 1, 1, 768)    37632       ['block4h_se_reduce[0][0]']      
                                                                                                  
 block4h_se_excite (Multiply)   (None, 16, 16, 768)  0           ['block4h_activation[0][0]',     
                                                                  'block4h_se_expand[0][0]']      
                                                                                                  
 block4h_project_conv (Conv2D)  (None, 16, 16, 192)  147456      ['block4h_se_excite[0][0]']      
                                                                                                  
 block4h_project_bn (BatchNorma  (None, 16, 16, 192)  768        ['block4h_project_conv[0][0]']   
 lization)                                                                                        
                                                                                                  
 block4h_drop (Dropout)         (None, 16, 16, 192)  0           ['block4h_project_bn[0][0]']     
                                                                                                  
 block4h_add (Add)              (None, 16, 16, 192)  0           ['block4h_drop[0][0]',           
                                                                  'block4g_add[0][0]']            
                                                                                                  
 block4i_expand_conv (Conv2D)   (None, 16, 16, 768)  147456      ['block4h_add[0][0]']            
                                                                                                  
 block4i_expand_bn (BatchNormal  (None, 16, 16, 768)  3072       ['block4i_expand_conv[0][0]']    
 ization)                                                                                         
                                                                                                  
 block4i_expand_activation (Act  (None, 16, 16, 768)  0          ['block4i_expand_bn[0][0]']      
 ivation)                                                                                         
                                                                                                  
 block4i_dwconv2 (DepthwiseConv  (None, 16, 16, 768)  6912       ['block4i_expand_activation[0][0]
 2D)                                                             ']                               
                                                                                                  
 block4i_bn (BatchNormalization  (None, 16, 16, 768)  3072       ['block4i_dwconv2[0][0]']        
 )                                                                                                
                                                                                                  
 block4i_activation (Activation  (None, 16, 16, 768)  0          ['block4i_bn[0][0]']             
 )                                                                                                
                                                                                                  
 block4i_se_squeeze (GlobalAver  (None, 768)         0           ['block4i_activation[0][0]']     
 agePooling2D)                                                                                    
                                                                                                  
 block4i_se_reshape (Reshape)   (None, 1, 1, 768)    0           ['block4i_se_squeeze[0][0]']     
                                                                                                  
 block4i_se_reduce (Conv2D)     (None, 1, 1, 48)     36912       ['block4i_se_reshape[0][0]']     
                                                                                                  
 block4i_se_expand (Conv2D)     (None, 1, 1, 768)    37632       ['block4i_se_reduce[0][0]']      
                                                                                                  
 block4i_se_excite (Multiply)   (None, 16, 16, 768)  0           ['block4i_activation[0][0]',     
                                                                  'block4i_se_expand[0][0]']      
                                                                                                  
 block4i_project_conv (Conv2D)  (None, 16, 16, 192)  147456      ['block4i_se_excite[0][0]']      
                                                                                                  
 block4i_project_bn (BatchNorma  (None, 16, 16, 192)  768        ['block4i_project_conv[0][0]']   
 lization)                                                                                        
                                                                                                  
 block4i_drop (Dropout)         (None, 16, 16, 192)  0           ['block4i_project_bn[0][0]']     
                                                                                                  
 block4i_add (Add)              (None, 16, 16, 192)  0           ['block4i_drop[0][0]',           
                                                                  'block4h_add[0][0]']            
                                                                                                  
 block4j_expand_conv (Conv2D)   (None, 16, 16, 768)  147456      ['block4i_add[0][0]']            
                                                                                                  
 block4j_expand_bn (BatchNormal  (None, 16, 16, 768)  3072       ['block4j_expand_conv[0][0]']    
 ization)                                                                                         
                                                                                                  
 block4j_expand_activation (Act  (None, 16, 16, 768)  0          ['block4j_expand_bn[0][0]']      
 ivation)                                                                                         
                                                                                                  
 block4j_dwconv2 (DepthwiseConv  (None, 16, 16, 768)  6912       ['block4j_expand_activation[0][0]
 2D)                                                             ']                               
                                                                                                  
 block4j_bn (BatchNormalization  (None, 16, 16, 768)  3072       ['block4j_dwconv2[0][0]']        
 )                                                                                                
                                                                                                  
 block4j_activation (Activation  (None, 16, 16, 768)  0          ['block4j_bn[0][0]']             
 )                                                                                                
                                                                                                  
 block4j_se_squeeze (GlobalAver  (None, 768)         0           ['block4j_activation[0][0]']     
 agePooling2D)                                                                                    
                                                                                                  
 block4j_se_reshape (Reshape)   (None, 1, 1, 768)    0           ['block4j_se_squeeze[0][0]']     
                                                                                                  
 block4j_se_reduce (Conv2D)     (None, 1, 1, 48)     36912       ['block4j_se_reshape[0][0]']     
                                                                                                  
 block4j_se_expand (Conv2D)     (None, 1, 1, 768)    37632       ['block4j_se_reduce[0][0]']      
                                                                                                  
 block4j_se_excite (Multiply)   (None, 16, 16, 768)  0           ['block4j_activation[0][0]',     
                                                                  'block4j_se_expand[0][0]']      
                                                                                                  
 block4j_project_conv (Conv2D)  (None, 16, 16, 192)  147456      ['block4j_se_excite[0][0]']      
                                                                                                  
 block4j_project_bn (BatchNorma  (None, 16, 16, 192)  768        ['block4j_project_conv[0][0]']   
 lization)                                                                                        
                                                                                                  
 block4j_drop (Dropout)         (None, 16, 16, 192)  0           ['block4j_project_bn[0][0]']     
                                                                                                  
 block4j_add (Add)              (None, 16, 16, 192)  0           ['block4j_drop[0][0]',           
                                                                  'block4i_add[0][0]']            
                                                                                                  
 block5a_expand_conv (Conv2D)   (None, 16, 16, 1152  221184      ['block4j_add[0][0]']            
                                )                                                                 
…
 block5a_bn (BatchNormalization  (None, 16, 16, 1152  4608       ['block5a_dwconv2[0][0]']        
 )                              )                                                                 
                                                                                                  
 block5a_activation (Activation  (None, 16, 16, 1152  0          ['block5a_bn[0][0]']             
 )                              )                                                                 
                                                                                                  
 block5a_se_squeeze (GlobalAver  (None, 1152)        0           ['block5a_activation[0][0]']     
 agePooling2D)                                                                                    
                                                                                                  
 block5a_se_reshape (Reshape)   (None, 1, 1, 1152)   0           ['block5a_se_squeeze[0][0]']     
                                                                                                  
 block5a_se_reduce (Conv2D)     (None, 1, 1, 48)     55344       ['block5a_se_reshape[0][0]']     
                                                                                                  
 block5a_se_expand (Conv2D)     (None, 1, 1, 1152)   56448       ['block5a_se_reduce[0][0]']      
                                                                                                  
 block5a_se_excite (Multiply)   (None, 16, 16, 1152  0           ['block5a_activation[0][0]',     
                                )                                 'block5a_se_expand[0][0]']      
                                                                                                  
 block5a_project_conv (Conv2D)  (None, 16, 16, 224)  258048      ['block5a_se_excite[0][0]']      
                                                                                                  
 block5a_project_bn (BatchNorma  (None, 16, 16, 224)  896        ['block5a_project_conv[0][0]']   
 lization)                                                                                        
                                                                                                  
 block5b_expand_conv (Conv2D)   (None, 16, 16, 1344  301056      ['block5a_project_bn[0][0]']     
                                )                                                                 
…
 block5b_bn (BatchNormalization  (None, 16, 16, 1344  5376       ['block5b_dwconv2[0][0]']        
 )                              )                                                                 
                                                                                                  
 block5b_activation (Activation  (None, 16, 16, 1344  0          ['block5b_bn[0][0]']             
 )                              )                                                                 
                                                                                                  
 block5b_se_squeeze (GlobalAver  (None, 1344)        0           ['block5b_activation[0][0]']     
 agePooling2D)                                                                                    
                                                                                                  
 block5b_se_reshape (Reshape)   (None, 1, 1, 1344)   0           ['block5b_se_squeeze[0][0]']     
                                                                                                  
 block5b_se_reduce (Conv2D)     (None, 1, 1, 56)     75320       ['block5b_se_reshape[0][0]']     
                                                                                                  
 block5b_se_expand (Conv2D)     (None, 1, 1, 1344)   76608       ['block5b_se_reduce[0][0]']      
                                                                                                  
 block5b_se_excite (Multiply)   (None, 16, 16, 1344  0           ['block5b_activation[0][0]',     
                                )                                 'block5b_se_expand[0][0]']      
                                                                                                  
 block5b_project_conv (Conv2D)  (None, 16, 16, 224)  301056      ['block5b_se_excite[0][0]']      
                                                                                                  
 block5b_project_bn (BatchNorma  (None, 16, 16, 224)  896        ['block5b_project_conv[0][0]']   
 lization)                                                                                        
                                                                                                  
 block5b_drop (Dropout)         (None, 16, 16, 224)  0           ['block5b_project_bn[0][0]']     
                                                                                                  
 block5b_add (Add)              (None, 16, 16, 224)  0           ['block5b_drop[0][0]',           
                                                                  'block5a_project_bn[0][0]']     
                                                                                                  
 block5c_expand_conv (Conv2D)   (None, 16, 16, 1344  301056      ['block5b_add[0][0]']            
                                )                                                                 
…
 block6a_expand_bn (BatchNormal  (None, 16, 16, 1344  5376       ['block6a_expand_conv[0][0]']    
 ization)                       )                                                                 
                                                                                                  
 block6a_expand_activation (Act  (None, 16, 16, 1344  0          ['block6a_expand_bn[0][0]']      
 ivation)                       )                                                                 
                                                                                                  
 block6a_dwconv2 (DepthwiseConv  (None, 8, 8, 1344)  12096       ['block6a_expand_activation[0][0]
 2D)                                                             ']                               
                                                                                                  
 block6a_bn (BatchNormalization  (None, 8, 8, 1344)  5376        ['block6a_dwconv2[0][0]']        
 )                                                                                                
                                                                                                  
 block6a_activation (Activation  (None, 8, 8, 1344)  0           ['block6a_bn[0][0]']             
 )                                                                                                
                                                                                                  
 block6a_se_squeeze (GlobalAver  (None, 1344)        0           ['block6a_activation[0][0]']     
 agePooling2D)                                                                                    
                                                                                                  
 block6a_se_reshape (Reshape)   (None, 1, 1, 1344)   0           ['block6a_se_squeeze[0][0]']     
                                                                                                  
 block6a_se_reduce (Conv2D)     (None, 1, 1, 56)     75320       ['block6a_se_reshape[0][0]']     
                                                                                                  
 block6a_se_expand (Conv2D)     (None, 1, 1, 1344)   76608       ['block6a_se_reduce[0][0]']      
                                                                                                  
 block6a_se_excite (Multiply)   (None, 8, 8, 1344)   0           ['block6a_activation[0][0]',     
                                                                  'block6a_se_expand[0][0]']      
                                                                                                  
 block6a_project_conv (Conv2D)  (None, 8, 8, 384)    516096      ['block6a_se_excite[0][0]']      
                                                                                                  
 block6a_project_bn (BatchNorma  (None, 8, 8, 384)   1536        ['block6a_project_conv[0][0]']   
 lization)                                                                                        
                                                                                                  
 block6b_expand_conv (Conv2D)   (None, 8, 8, 2304)   884736      ['block6a_project_bn[0][0]']     
                                                                                                  
 block6b_expand_bn (BatchNormal  (None, 8, 8, 2304)  9216        ['block6b_expand_conv[0][0]']    
 ization)                                                                                         
                                                                                                  
 block6b_expand_activation (Act  (None, 8, 8, 2304)  0           ['block6b_expand_bn[0][0]']      
 ivation)                                                                                         
                                                                                                  
 block6b_dwconv2 (DepthwiseConv  (None, 8, 8, 2304)  20736       ['block6b_expand_activation[0][0]
 2D)                                                             ']                               
                                                                                                  
 block6b_bn (BatchNormalization  (None, 8, 8, 2304)  9216        ['block6b_dwconv2[0][0]']        
 )                                                                                                
                                                                                                  
 block6b_activation (Activation  (None, 8, 8, 2304)  0           ['block6b_bn[0][0]']             
 )                                                                                                
                                                                                                  
 block6b_se_squeeze (GlobalAver  (None, 2304)        0           ['block6b_activation[0][0]']     
 agePooling2D)                                                                                    
                                                                                                  
 block6b_se_reshape (Reshape)   (None, 1, 1, 2304)   0           ['block6b_se_squeeze[0][0]']     
                                                                                                  
 block6b_se_reduce (Conv2D)     (None, 1, 1, 96)     221280      ['block6b_se_reshape[0][0]']     
                                                                                                  
 block6b_se_expand (Conv2D)     (None, 1, 1, 2304)   223488      ['block6b_se_reduce[0][0]']      
                                                                                                  
 block6b_se_excite (Multiply)   (None, 8, 8, 2304)   0           ['block6b_activation[0][0]',     
                                                                  'block6b_se_expand[0][0]']      
                                                                                                  
 block6b_project_conv (Conv2D)  (None, 8, 8, 384)    884736      ['block6b_se_excite[0][0]']      
                                                                                                  
 block6b_project_bn (BatchNorma  (None, 8, 8, 384)   1536        ['block6b_project_conv[0][0]']   
 lization)                                                                                        
                                                                                                  
 block6b_drop (Dropout)         (None, 8, 8, 384)    0           ['block6b_project_bn[0][0]']     
                                                                                                  
 block6b_add (Add)              (None, 8, 8, 384)    0           ['block6b_drop[0][0]',           
                                                                  'block6a_project_bn[0][0]']     
                                                                                                  
 block6c_expand_conv (Conv2D)   (None, 8, 8, 2304)   884736      ['block6b_add[0][0]']            
                                                                                                  
 block6c_expand_bn (BatchNormal  (None, 8, 8, 2304)  9216        ['block6c_expand_conv[0][0]']    
 ization)                                                                                         
                                                                                                  
 block6c_expand_activation (Act  (None, 8, 8, 2304)  0           ['block6c_expand_bn[0][0]']      
 ivation)                                                                                         
                                                                                                  
 block6c_dwconv2 (DepthwiseConv  (None, 8, 8, 2304)  20736       ['block6c_expand_activation[0][0]
 2D)                                                             ']                               
                                                                                                  
 block6c_bn (BatchNormalization  (None, 8, 8, 2304)  9216        ['block6c_dwconv2[0][0]']        
 )                                                                                                
                                                                                                  
 block6c_activation (Activation  (None, 8, 8, 2304)  0           ['block6c_bn[0][0]']             
 )                                                                                                
                                                                                                  
 block6c_se_squeeze (GlobalAver  (None, 2304)        0           ['block6c_activation[0][0]']     
 agePooling2D)                                                                                    
                                                                                                  
 block6c_se_reshape (Reshape)   (None, 1, 1, 2304)   0           ['block6c_se_squeeze[0][0]']     
                                                                                                  
 block6c_se_reduce (Conv2D)     (None, 1, 1, 96)     221280      ['block6c_se_reshape[0][0]']     
                                                                                                  
 block6c_se_expand (Conv2D)     (None, 1, 1, 2304)   223488      ['block6c_se_reduce[0][0]']      
                                                                                                  
 block6c_se_excite (Multiply)   (None, 8, 8, 2304)   0           ['block6c_activation[0][0]',     
                                                                  'block6c_se_expand[0][0]']      
                                                                                                  
 block6c_project_conv (Conv2D)  (None, 8, 8, 384)    884736      ['block6c_se_excite[0][0]']      
                                                                                                  
 block6c_project_bn (BatchNorma  (None, 8, 8, 384)   1536        ['block6c_project_conv[0][0]']   
 lization)                                                                                        
                                                                                                  
 block6c_drop (Dropout)         (None, 8, 8, 384)    0           ['block6c_project_bn[0][0]']     
                                                                                                  
 block6c_add (Add)              (None, 8, 8, 384)    0           ['block6c_drop[0][0]',           
                                                                  'block6b_add[0][0]']            
                                                                                                  
 block6d_expand_conv (Conv2D)   (None, 8, 8, 2304)   884736      ['block6c_add[0][0]']            
                                                                                                  
 block6d_expand_bn (BatchNormal  (None, 8, 8, 2304)  9216        ['block6d_expand_conv[0][0]']    
 ization)                                                                                         
                                                                                                  
 block6d_expand_activation (Act  (None, 8, 8, 2304)  0           ['block6d_expand_bn[0][0]']      
 ivation)                                                                                         
                                                                                                  
 block6d_dwconv2 (DepthwiseConv  (None, 8, 8, 2304)  20736       ['block6d_expand_activation[0][0]
 2D)                                                             ']                               
                                                                                                  
 block6d_bn (BatchNormalization  (None, 8, 8, 2304)  9216        ['block6d_dwconv2[0][0]']        
 )                                                                                                
                                                                                                  
 block6d_activation (Activation  (None, 8, 8, 2304)  0           ['block6d_bn[0][0]']             
 )                                                                                                
                                                                                                  
 block6d_se_squeeze (GlobalAver  (None, 2304)        0           ['block6d_activation[0][0]']     
 agePooling2D)                                                                                    
                                                                                                  
 block6d_se_reshape (Reshape)   (None, 1, 1, 2304)   0           ['block6d_se_squeeze[0][0]']     
                                                                                                  
 block6d_se_reduce (Conv2D)     (None, 1, 1, 96)     221280      ['block6d_se_reshape[0][0]']     
                                                                                                  
 block6d_se_expand (Conv2D)     (None, 1, 1, 2304)   223488      ['block6d_se_reduce[0][0]']      
                                                                                                  
 block6d_se_excite (Multiply)   (None, 8, 8, 2304)   0           ['block6d_activation[0][0]',     
                                                                  'block6d_se_expand[0][0]']      
                                                                                                  
 block6d_project_conv (Conv2D)  (None, 8, 8, 384)    884736      ['block6d_se_excite[0][0]']      
                                                                                                  
 block6d_project_bn (BatchNorma  (None, 8, 8, 384)   1536        ['block6d_project_conv[0][0]']   
 lization)                                                                                        
                                                                                                  
 block6d_drop (Dropout)         (None, 8, 8, 384)    0           ['block6d_project_bn[0][0]']     
                                                                                                  
 block6d_add (Add)              (None, 8, 8, 384)    0           ['block6d_drop[0][0]',           
                                                                  'block6c_add[0][0]']            
                                                                                                  
 block6e_expand_conv (Conv2D)   (None, 8, 8, 2304)   884736      ['block6d_add[0][0]']            
                                                                                                  
 block6e_expand_bn (BatchNormal  (None, 8, 8, 2304)  9216        ['block6e_expand_conv[0][0]']    
 ization)                                                                                         
                                                                                                  
 block6e_expand_activation (Act  (None, 8, 8, 2304)  0           ['block6e_expand_bn[0][0]']      
 ivation)                                                                                         
                                                                                                  
 block6e_dwconv2 (DepthwiseConv  (None, 8, 8, 2304)  20736       ['block6e_expand_activation[0][0]
 2D)                                                             ']                               
                                                                                                  
 block6e_bn (BatchNormalization  (None, 8, 8, 2304)  9216        ['block6e_dwconv2[0][0]']        
 )                                                                                                
                                                                                                  
 block6e_activation (Activation  (None, 8, 8, 2304)  0           ['block6e_bn[0][0]']             
 )                                                                                                
                                                                                                  
 block6e_se_squeeze (GlobalAver  (None, 2304)        0           ['block6e_activation[0][0]']     
 agePooling2D)                                                                                    
                                                                                                  
 block6e_se_reshape (Reshape)   (None, 1, 1, 2304)   0           ['block6e_se_squeeze[0][0]']     
                                                                                                  
 block6e_se_reduce (Conv2D)     (None, 1, 1, 96)     221280      ['block6e_se_reshape[0][0]']     
                                                                                                  
 block6e_se_expand (Conv2D)     (None, 1, 1, 2304)   223488      ['block6e_se_reduce[0][0]']      
                                                                                                  
 block6e_se_excite (Multiply)   (None, 8, 8, 2304)   0           ['block6e_activation[0][0]',     
                                                                  'block6e_se_expand[0][0]']      
                                                                                                  
 block6e_project_conv (Conv2D)  (None, 8, 8, 384)    884736      ['block6e_se_excite[0][0]']      
                                                                                                  
 block6e_project_bn (BatchNorma  (None, 8, 8, 384)   1536        ['block6e_project_conv[0][0]']   
 lization)                                                                                        
                                                                                                  
 block6e_drop (Dropout)         (None, 8, 8, 384)    0           ['block6e_project_bn[0][0]']     
                                                                                                  
 block6e_add (Add)              (None, 8, 8, 384)    0           ['block6e_drop[0][0]',           
                                                                  'block6d_add[0][0]']            
                                                                                                  
 block6f_expand_conv (Conv2D)   (None, 8, 8, 2304)   884736      ['block6e_add[0][0]']            
                                                                                                  
 block6f_expand_bn (BatchNormal  (None, 8, 8, 2304)  9216        ['block6f_expand_conv[0][0]']    
 ization)                                                                                         
                                                                                                  
 block6f_expand_activation (Act  (None, 8, 8, 2304)  0           ['block6f_expand_bn[0][0]']      
 ivation)                                                                                         
                                                                                                  
 block6f_dwconv2 (DepthwiseConv  (None, 8, 8, 2304)  20736       ['block6f_expand_activation[0][0]
 2D)                                                             ']                               
                                                                                                  
 block6f_bn (BatchNormalization  (None, 8, 8, 2304)  9216        ['block6f_dwconv2[0][0]']        
 )                                                                                                
                                                                                                  
 block6f_activation (Activation  (None, 8, 8, 2304)  0           ['block6f_bn[0][0]']             
 )                                                                                                
                                                                                                  
 block6f_se_squeeze (GlobalAver  (None, 2304)        0           ['block6f_activation[0][0]']     
 agePooling2D)                                                                                    
                                                                                                  
 block6f_se_reshape (Reshape)   (None, 1, 1, 2304)   0           ['block6f_se_squeeze[0][0]']     
                                                                                                  
 block6f_se_reduce (Conv2D)     (None, 1, 1, 96)     221280      ['block6f_se_reshape[0][0]']     
                                                                                                  
 block6f_se_expand (Conv2D)     (None, 1, 1, 2304)   223488      ['block6f_se_reduce[0][0]']      
                                                                                                  
 block6f_se_excite (Multiply)   (None, 8, 8, 2304)   0           ['block6f_activation[0][0]',     
                                                                  'block6f_se_expand[0][0]']      
                                                                                                  
 block6f_project_conv (Conv2D)  (None, 8, 8, 384)    884736      ['block6f_se_excite[0][0]']      
                                                                                                  
 block6f_project_bn (BatchNorma  (None, 8, 8, 384)   1536        ['block6f_project_conv[0][0]']   
 lization)                                                                                        
                                                                                                  
 block6f_drop (Dropout)         (None, 8, 8, 384)    0           ['block6f_project_bn[0][0]']     
                                                                                                  
 block6f_add (Add)              (None, 8, 8, 384)    0           ['block6f_drop[0][0]',           
                                                                  'block6e_add[0][0]']            
                                                                                                  
 block6g_expand_conv (Conv2D)   (None, 8, 8, 2304)   884736      ['block6f_add[0][0]']            
                                                                                                  
 block6g_expand_bn (BatchNormal  (None, 8, 8, 2304)  9216        ['block6g_expand_conv[0][0]']    
 ization)                                                                                         
                                                                                                  
 block6g_expand_activation (Act  (None, 8, 8, 2304)  0           ['block6g_expand_bn[0][0]']      
 ivation)                                                                                         
                                                                                                  
 block6g_dwconv2 (DepthwiseConv  (None, 8, 8, 2304)  20736       ['block6g_expand_activation[0][0]
 2D)                                                             ']                               
                                                                                                  
 block6g_bn (BatchNormalization  (None, 8, 8, 2304)  9216        ['block6g_dwconv2[0][0]']        
 )                                                                                                
                                                                                                  
 block6g_activation (Activation  (None, 8, 8, 2304)  0           ['block6g_bn[0][0]']             
 )                                                                                                
                                                                                                  
 block6g_se_squeeze (GlobalAver  (None, 2304)        0           ['block6g_activation[0][0]']     
 agePooling2D)                                                                                    
                                                                                                  
 block6g_se_reshape (Reshape)   (None, 1, 1, 2304)   0           ['block6g_se_squeeze[0][0]']     
                                                                                                  
 block6g_se_reduce (Conv2D)     (None, 1, 1, 96)     221280      ['block6g_se_reshape[0][0]']     
                                                                                                  
 block6g_se_expand (Conv2D)     (None, 1, 1, 2304)   223488      ['block6g_se_reduce[0][0]']      
                                                                                                  
 block6g_se_excite (Multiply)   (None, 8, 8, 2304)   0           ['block6g_activation[0][0]',     
                                                                  'block6g_se_expand[0][0]']      
                                                                                                  
 block6g_project_conv (Conv2D)  (None, 8, 8, 384)    884736      ['block6g_se_excite[0][0]']      
                                                                                                  
 block6g_project_bn (BatchNorma  (None, 8, 8, 384)   1536        ['block6g_project_conv[0][0]']   
 lization)                                                                                        
                                                                                                  
 block6g_drop (Dropout)         (None, 8, 8, 384)    0           ['block6g_project_bn[0][0]']     
                                                                                                  
 block6g_add (Add)              (None, 8, 8, 384)    0           ['block6g_drop[0][0]',           
                                                                  'block6f_add[0][0]']            
                                                                                                  
 block6h_expand_conv (Conv2D)   (None, 8, 8, 2304)   884736      ['block6g_add[0][0]']            
                                                                                                  
 block6h_expand_bn (BatchNormal  (None, 8, 8, 2304)  9216        ['block6h_expand_conv[0][0]']    
 ization)                                                                                         
                                                                                                  
 block6h_expand_activation (Act  (None, 8, 8, 2304)  0           ['block6h_expand_bn[0][0]']      
 ivation)                                                                                         
                                                                                                  
 block6h_dwconv2 (DepthwiseConv  (None, 8, 8, 2304)  20736       ['block6h_expand_activation[0][0]
 2D)                                                             ']                               
                                                                                                  
 block6h_bn (BatchNormalization  (None, 8, 8, 2304)  9216        ['block6h_dwconv2[0][0]']        
 )                                                                                                
                                                                                                  
 block6h_activation (Activation  (None, 8, 8, 2304)  0           ['block6h_bn[0][0]']             
 )                                                                                                
                                                                                                  
 block6h_se_squeeze (GlobalAver  (None, 2304)        0           ['block6h_activation[0][0]']     
 agePooling2D)                                                                                    
                                                                                                  
 block6h_se_reshape (Reshape)   (None, 1, 1, 2304)   0           ['block6h_se_squeeze[0][0]']     
                                                                                                  
 block6h_se_reduce (Conv2D)     (None, 1, 1, 96)     221280      ['block6h_se_reshape[0][0]']     
                                                                                                  
 block6h_se_expand (Conv2D)     (None, 1, 1, 2304)   223488      ['block6h_se_reduce[0][0]']      
                                                                                                  
 block6h_se_excite (Multiply)   (None, 8, 8, 2304)   0           ['block6h_activation[0][0]',     
                                                                  'block6h_se_expand[0][0]']      
                                                                                                  
 block6h_project_conv (Conv2D)  (None, 8, 8, 384)    884736      ['block6h_se_excite[0][0]']      
                                                                                                  
 block6h_project_bn (BatchNorma  (None, 8, 8, 384)   1536        ['block6h_project_conv[0][0]']   
 lization)                                                                                        
                                                                                                  
 block6h_drop (Dropout)         (None, 8, 8, 384)    0           ['block6h_project_bn[0][0]']     
                                                                                                  
 block6h_add (Add)              (None, 8, 8, 384)    0           ['block6h_drop[0][0]',           
                                                                  'block6g_add[0][0]']            
                                                                                                  
 block6i_expand_conv (Conv2D)   (None, 8, 8, 2304)   884736      ['block6h_add[0][0]']            
                                                                                                  
 block6i_expand_bn (BatchNormal  (None, 8, 8, 2304)  9216        ['block6i_expand_conv[0][0]']    
 ization)                                                                                         
                                                                                                  
 block6i_expand_activation (Act  (None, 8, 8, 2304)  0           ['block6i_expand_bn[0][0]']      
 ivation)                                                                                         
                                                                                                  
 block6i_dwconv2 (DepthwiseConv  (None, 8, 8, 2304)  20736       ['block6i_expand_activation[0][0]
 2D)                                                             ']                               
                                                                                                  
 block6i_bn (BatchNormalization  (None, 8, 8, 2304)  9216        ['block6i_dwconv2[0][0]']        
 )                                                                                                
                                                                                                  
 block6i_activation (Activation  (None, 8, 8, 2304)  0           ['block6i_bn[0][0]']             
 )                                                                                                
                                                                                                  
 block6i_se_squeeze (GlobalAver  (None, 2304)        0           ['block6i_activation[0][0]']     
 agePooling2D)                                                                                    
                                                                                                  
 block6i_se_reshape (Reshape)   (None, 1, 1, 2304)   0           ['block6i_se_squeeze[0][0]']     
                                                                                                  
 block6i_se_reduce (Conv2D)     (None, 1, 1, 96)     221280      ['block6i_se_reshape[0][0]']     
                                                                                                  
 block6i_se_expand (Conv2D)     (None, 1, 1, 2304)   223488      ['block6i_se_reduce[0][0]']      
                                                                                                  
 block6i_se_excite (Multiply)   (None, 8, 8, 2304)   0           ['block6i_activation[0][0]',     
                                                                  'block6i_se_expand[0][0]']      
                                                                                                  
 block6i_project_conv (Conv2D)  (None, 8, 8, 384)    884736      ['block6i_se_excite[0][0]']      
                                                                                                  
 block6i_project_bn (BatchNorma  (None, 8, 8, 384)   1536        ['block6i_project_conv[0][0]']   
 lization)                                                                                        
                                                                                                  
 block6i_drop (Dropout)         (None, 8, 8, 384)    0           ['block6i_project_bn[0][0]']     
                                                                                                  
 block6i_add (Add)              (None, 8, 8, 384)    0           ['block6i_drop[0][0]',           
                                                                  'block6h_add[0][0]']            
                                                                                                  
 block6j_expand_conv (Conv2D)   (None, 8, 8, 2304)   884736      ['block6i_add[0][0]']            
                                                                                                  
 block6j_expand_bn (BatchNormal  (None, 8, 8, 2304)  9216        ['block6j_expand_conv[0][0]']    
 ization)                                                                                         
                                                                                                  
 block6j_expand_activation (Act  (None, 8, 8, 2304)  0           ['block6j_expand_bn[0][0]']      
 ivation)                                                                                         
                                                                                                  
 block6j_dwconv2 (DepthwiseConv  (None, 8, 8, 2304)  20736       ['block6j_expand_activation[0][0]
 2D)                                                             ']                               
                                                                                                  
 block6j_bn (BatchNormalization  (None, 8, 8, 2304)  9216        ['block6j_dwconv2[0][0]']        
 )                                                                                                
                                                                                                  
 block6j_activation (Activation  (None, 8, 8, 2304)  0           ['block6j_bn[0][0]']             
 )                                                                                                
                                                                                                  
 block6j_se_squeeze (GlobalAver  (None, 2304)        0           ['block6j_activation[0][0]']     
 agePooling2D)                                                                                    
                                                                                                  
 block6j_se_reshape (Reshape)   (None, 1, 1, 2304)   0           ['block6j_se_squeeze[0][0]']     
                                                                                                  
 block6j_se_reduce (Conv2D)     (None, 1, 1, 96)     221280      ['block6j_se_reshape[0][0]']     
                                                                                                  
 block6j_se_expand (Conv2D)     (None, 1, 1, 2304)   223488      ['block6j_se_reduce[0][0]']      
                                                                                                  
 block6j_se_excite (Multiply)   (None, 8, 8, 2304)   0           ['block6j_activation[0][0]',     
                                                                  'block6j_se_expand[0][0]']      
                                                                                                  
 block6j_project_conv (Conv2D)  (None, 8, 8, 384)    884736      ['block6j_se_excite[0][0]']      
                                                                                                  
 block6j_project_bn (BatchNorma  (None, 8, 8, 384)   1536        ['block6j_project_conv[0][0]']   
 lization)                                                                                        
                                                                                                  
 block6j_drop (Dropout)         (None, 8, 8, 384)    0           ['block6j_project_bn[0][0]']     
                                                                                                  
 block6j_add (Add)              (None, 8, 8, 384)    0           ['block6j_drop[0][0]',           
                                                                  'block6i_add[0][0]']            
                                                                                                  
 block6k_expand_conv (Conv2D)   (None, 8, 8, 2304)   884736      ['block6j_add[0][0]']            
                                                                                                  
 block6k_expand_bn (BatchNormal  (None, 8, 8, 2304)  9216        ['block6k_expand_conv[0][0]']    
 ization)                                                                                         
                                                                                                  
 block6k_expand_activation (Act  (None, 8, 8, 2304)  0           ['block6k_expand_bn[0][0]']      
 ivation)                                                                                         
                                                                                                  
 block6k_dwconv2 (DepthwiseConv  (None, 8, 8, 2304)  20736       ['block6k_expand_activation[0][0]
 2D)                                                             ']                               
                                                                                                  
 block6k_bn (BatchNormalization  (None, 8, 8, 2304)  9216        ['block6k_dwconv2[0][0]']        
 )                                                                                                
                                                                                                  
 block6k_activation (Activation  (None, 8, 8, 2304)  0           ['block6k_bn[0][0]']             
 )                                                                                                
                                                                                                  
 block6k_se_squeeze (GlobalAver  (None, 2304)        0           ['block6k_activation[0][0]']     
 agePooling2D)                                                                                    
                                                                                                  
 block6k_se_reshape (Reshape)   (None, 1, 1, 2304)   0           ['block6k_se_squeeze[0][0]']     
                                                                                                  
 block6k_se_reduce (Conv2D)     (None, 1, 1, 96)     221280      ['block6k_se_reshape[0][0]']     
                                                                                                  
 block6k_se_expand (Conv2D)     (None, 1, 1, 2304)   223488      ['block6k_se_reduce[0][0]']      
                                                                                                  
 block6k_se_excite (Multiply)   (None, 8, 8, 2304)   0           ['block6k_activation[0][0]',     
                                                                  'block6k_se_expand[0][0]']      
                                                                                                  
 block6k_project_conv (Conv2D)  (None, 8, 8, 384)    884736      ['block6k_se_excite[0][0]']      
                                                                                                  
 block6k_project_bn (BatchNorma  (None, 8, 8, 384)   1536        ['block6k_project_conv[0][0]']   
 lization)                                                                                        
                                                                                                  
 block6k_drop (Dropout)         (None, 8, 8, 384)    0           ['block6k_project_bn[0][0]']     
                                                                                                  
 block6k_add (Add)              (None, 8, 8, 384)    0           ['block6k_drop[0][0]',           
                                                                  'block6j_add[0][0]']            
                                                                                                  
 block6l_expand_conv (Conv2D)   (None, 8, 8, 2304)   884736      ['block6k_add[0][0]']            
                                                                                                  
 block6l_expand_bn (BatchNormal  (None, 8, 8, 2304)  9216        ['block6l_expand_conv[0][0]']    
 ization)                                                                                         
                                                                                                  
 block6l_expand_activation (Act  (None, 8, 8, 2304)  0           ['block6l_expand_bn[0][0]']      
 ivation)                                                                                         
                                                                                                  
 block6l_dwconv2 (DepthwiseConv  (None, 8, 8, 2304)  20736       ['block6l_expand_activation[0][0]
 2D)                                                             ']                               
                                                                                                  
 block6l_bn (BatchNormalization  (None, 8, 8, 2304)  9216        ['block6l_dwconv2[0][0]']        
 )                                                                                                
                                                                                                  
 block6l_activation (Activation  (None, 8, 8, 2304)  0           ['block6l_bn[0][0]']             
 )                                                                                                
                                                                                                  
 block6l_se_squeeze (GlobalAver  (None, 2304)        0           ['block6l_activation[0][0]']     
 agePooling2D)                                                                                    
                                                                                                  
 block6l_se_reshape (Reshape)   (None, 1, 1, 2304)   0           ['block6l_se_squeeze[0][0]']     
                                                                                                  
 block6l_se_reduce (Conv2D)     (None, 1, 1, 96)     221280      ['block6l_se_reshape[0][0]']     
                                                                                                  
 block6l_se_expand (Conv2D)     (None, 1, 1, 2304)   223488      ['block6l_se_reduce[0][0]']      
                                                                                                  
 block6l_se_excite (Multiply)   (None, 8, 8, 2304)   0           ['block6l_activation[0][0]',     
                                                                  'block6l_se_expand[0][0]']      
                                                                                                  
 block6l_project_conv (Conv2D)  (None, 8, 8, 384)    884736      ['block6l_se_excite[0][0]']      
                                                                                                  
 block6l_project_bn (BatchNorma  (None, 8, 8, 384)   1536        ['block6l_project_conv[0][0]']   
 lization)                                                                                        
                                                                                                  
 block6l_drop (Dropout)         (None, 8, 8, 384)    0           ['block6l_project_bn[0][0]']     
                                                                                                  
 block6l_add (Add)              (None, 8, 8, 384)    0           ['block6l_drop[0][0]',           
                                                                  'block6k_add[0][0]']            
                                                                                                  
 block6m_expand_conv (Conv2D)   (None, 8, 8, 2304)   884736      ['block6l_add[0][0]']            
                                                                                                  
 block6m_expand_bn (BatchNormal  (None, 8, 8, 2304)  9216        ['block6m_expand_conv[0][0]']    
 ization)                                                                                         
                                                                                                  
 block6m_expand_activation (Act  (None, 8, 8, 2304)  0           ['block6m_expand_bn[0][0]']      
 ivation)                                                                                         
                                                                                                  
 block6m_dwconv2 (DepthwiseConv  (None, 8, 8, 2304)  20736       ['block6m_expand_activation[0][0]
 2D)                                                             ']                               
                                                                                                  
 block6m_bn (BatchNormalization  (None, 8, 8, 2304)  9216        ['block6m_dwconv2[0][0]']        
 )                                                                                                
                                                                                                  
 block6m_activation (Activation  (None, 8, 8, 2304)  0           ['block6m_bn[0][0]']             
 )                                                                                                
                                                                                                  
 block6m_se_squeeze (GlobalAver  (None, 2304)        0           ['block6m_activation[0][0]']     
 agePooling2D)                                                                                    
                                                                                                  
 block6m_se_reshape (Reshape)   (None, 1, 1, 2304)   0           ['block6m_se_squeeze[0][0]']     
                                                                                                  
 block6m_se_reduce (Conv2D)     (None, 1, 1, 96)     221280      ['block6m_se_reshape[0][0]']     
                                                                                                  
 block6m_se_expand (Conv2D)     (None, 1, 1, 2304)   223488      ['block6m_se_reduce[0][0]']      
                                                                                                  
 block6m_se_excite (Multiply)   (None, 8, 8, 2304)   0           ['block6m_activation[0][0]',     
                                                                  'block6m_se_expand[0][0]']      
                                                                                                  
 block6m_project_conv (Conv2D)  (None, 8, 8, 384)    884736      ['block6m_se_excite[0][0]']      
                                                                                                  
 block6m_project_bn (BatchNorma  (None, 8, 8, 384)   1536        ['block6m_project_conv[0][0]']   
 lization)                                                                                        
                                                                                                  
 block6m_drop (Dropout)         (None, 8, 8, 384)    0           ['block6m_project_bn[0][0]']     
                                                                                                  
 block6m_add (Add)              (None, 8, 8, 384)    0           ['block6m_drop[0][0]',           
                                                                  'block6l_add[0][0]']            
                                                                                                  
 block6n_expand_conv (Conv2D)   (None, 8, 8, 2304)   884736      ['block6m_add[0][0]']            
                                                                                                  
 block6n_expand_bn (BatchNormal  (None, 8, 8, 2304)  9216        ['block6n_expand_conv[0][0]']    
 ization)                                                                                         
                                                                                                  
 block6n_expand_activation (Act  (None, 8, 8, 2304)  0           ['block6n_expand_bn[0][0]']      
 ivation)                                                                                         
                                                                                                  
 block6n_dwconv2 (DepthwiseConv  (None, 8, 8, 2304)  20736       ['block6n_expand_activation[0][0]
 2D)                                                             ']                               
                                                                                                  
 block6n_bn (BatchNormalization  (None, 8, 8, 2304)  9216        ['block6n_dwconv2[0][0]']        
 )                                                                                                
                                                                                                  
 block6n_activation (Activation  (None, 8, 8, 2304)  0           ['block6n_bn[0][0]']             
 )                                                                                                
                                                                                                  
 block6n_se_squeeze (GlobalAver  (None, 2304)        0           ['block6n_activation[0][0]']     
 agePooling2D)                                                                                    
                                                                                                  
 block6n_se_reshape (Reshape)   (None, 1, 1, 2304)   0           ['block6n_se_squeeze[0][0]']     
                                                                                                  
 block6n_se_reduce (Conv2D)     (None, 1, 1, 96)     221280      ['block6n_se_reshape[0][0]']     
                                                                                                  
 block6n_se_expand (Conv2D)     (None, 1, 1, 2304)   223488      ['block6n_se_reduce[0][0]']      
                                                                                                  
 block6n_se_excite (Multiply)   (None, 8, 8, 2304)   0           ['block6n_activation[0][0]',     
                                                                  'block6n_se_expand[0][0]']      
                                                                                                  
 block6n_project_conv (Conv2D)  (None, 8, 8, 384)    884736      ['block6n_se_excite[0][0]']      
                                                                                                  
 block6n_project_bn (BatchNorma  (None, 8, 8, 384)   1536        ['block6n_project_conv[0][0]']   
 lization)                                                                                        
                                                                                                  
 block6n_drop (Dropout)         (None, 8, 8, 384)    0           ['block6n_project_bn[0][0]']     
                                                                                                  
 block6n_add (Add)              (None, 8, 8, 384)    0           ['block6n_drop[0][0]',           
                                                                  'block6m_add[0][0]']            
                                                                                                  
 block6o_expand_conv (Conv2D)   (None, 8, 8, 2304)   884736      ['block6n_add[0][0]']            
                                                                                                  
 block6o_expand_bn (BatchNormal  (None, 8, 8, 2304)  9216        ['block6o_expand_conv[0][0]']    
 ization)                                                                                         
                                                                                                  
 block6o_expand_activation (Act  (None, 8, 8, 2304)  0           ['block6o_expand_bn[0][0]']      
 ivation)                                                                                         
                                                                                                  
 block6o_dwconv2 (DepthwiseConv  (None, 8, 8, 2304)  20736       ['block6o_expand_activation[0][0]
 2D)                                                             ']                               
                                                                                                  
 block6o_bn (BatchNormalization  (None, 8, 8, 2304)  9216        ['block6o_dwconv2[0][0]']        
 )                                                                                                
                                                                                                  
 block6o_activation (Activation  (None, 8, 8, 2304)  0           ['block6o_bn[0][0]']             
 )                                                                                                
                                                                                                  
 block6o_se_squeeze (GlobalAver  (None, 2304)        0           ['block6o_activation[0][0]']     
 agePooling2D)                                                                                    
                                                                                                  
 block6o_se_reshape (Reshape)   (None, 1, 1, 2304)   0           ['block6o_se_squeeze[0][0]']     
                                                                                                  
 block6o_se_reduce (Conv2D)     (None, 1, 1, 96)     221280      ['block6o_se_reshape[0][0]']     
                                                                                                  
 block6o_se_expand (Conv2D)     (None, 1, 1, 2304)   223488      ['block6o_se_reduce[0][0]']      
                                                                                                  
 block6o_se_excite (Multiply)   (None, 8, 8, 2304)   0           ['block6o_activation[0][0]',     
                                                                  'block6o_se_expand[0][0]']      
                                                                                                  
 block6o_project_conv (Conv2D)  (None, 8, 8, 384)    884736      ['block6o_se_excite[0][0]']      
                                                                                                  
 block6o_project_bn (BatchNorma  (None, 8, 8, 384)   1536        ['block6o_project_conv[0][0]']   
 lization)                                                                                        
                                                                                                  
 block6o_drop (Dropout)         (None, 8, 8, 384)    0           ['block6o_project_bn[0][0]']     
                                                                                                  
 block6o_add (Add)              (None, 8, 8, 384)    0           ['block6o_drop[0][0]',           
                                                                  'block6n_add[0][0]']            
                                                                                                  
 block6p_expand_conv (Conv2D)   (None, 8, 8, 2304)   884736      ['block6o_add[0][0]']            
                                                                                                  
 block6p_expand_bn (BatchNormal  (None, 8, 8, 2304)  9216        ['block6p_expand_conv[0][0]']    
 ization)                                                                                         
                                                                                                  
 block6p_expand_activation (Act  (None, 8, 8, 2304)  0           ['block6p_expand_bn[0][0]']      
 ivation)                                                                                         
                                                                                                  
 block6p_dwconv2 (DepthwiseConv  (None, 8, 8, 2304)  20736       ['block6p_expand_activation[0][0]
 2D)                                                             ']                               
                                                                                                  
 block6p_bn (BatchNormalization  (None, 8, 8, 2304)  9216        ['block6p_dwconv2[0][0]']        
 )                                                                                                
                                                                                                  
 block6p_activation (Activation  (None, 8, 8, 2304)  0           ['block6p_bn[0][0]']             
 )                                                                                                
                                                                                                  
 block6p_se_squeeze (GlobalAver  (None, 2304)        0           ['block6p_activation[0][0]']     
 agePooling2D)                                                                                    
                                                                                                  
 block6p_se_reshape (Reshape)   (None, 1, 1, 2304)   0           ['block6p_se_squeeze[0][0]']     
                                                                                                  
 block6p_se_reduce (Conv2D)     (None, 1, 1, 96)     221280      ['block6p_se_reshape[0][0]']     
                                                                                                  
 block6p_se_expand (Conv2D)     (None, 1, 1, 2304)   223488      ['block6p_se_reduce[0][0]']      
                                                                                                  
 block6p_se_excite (Multiply)   (None, 8, 8, 2304)   0           ['block6p_activation[0][0]',     
                                                                  'block6p_se_expand[0][0]']      
                                                                                                  
 block6p_project_conv (Conv2D)  (None, 8, 8, 384)    884736      ['block6p_se_excite[0][0]']      
                                                                                                  
 block6p_project_bn (BatchNorma  (None, 8, 8, 384)   1536        ['block6p_project_conv[0][0]']   
 lization)                                                                                        
                                                                                                  
 block6p_drop (Dropout)         (None, 8, 8, 384)    0           ['block6p_project_bn[0][0]']     
                                                                                                  
 block6p_add (Add)              (None, 8, 8, 384)    0           ['block6p_drop[0][0]',           
                                                                  'block6o_add[0][0]']            
                                                                                                  
 block6q_expand_conv (Conv2D)   (None, 8, 8, 2304)   884736      ['block6p_add[0][0]']            
                                                                                                  
 block6q_expand_bn (BatchNormal  (None, 8, 8, 2304)  9216        ['block6q_expand_conv[0][0]']    
 ization)                                                                                         
                                                                                                  
 block6q_expand_activation (Act  (None, 8, 8, 2304)  0           ['block6q_expand_bn[0][0]']      
 ivation)                                                                                         
                                                                                                  
 block6q_dwconv2 (DepthwiseConv  (None, 8, 8, 2304)  20736       ['block6q_expand_activation[0][0]
 2D)                                                             ']                               
                                                                                                  
 block6q_bn (BatchNormalization  (None, 8, 8, 2304)  9216        ['block6q_dwconv2[0][0]']        
 )                                                                                                
                                                                                                  
 block6q_activation (Activation  (None, 8, 8, 2304)  0           ['block6q_bn[0][0]']             
 )                                                                                                
                                                                                                  
 block6q_se_squeeze (GlobalAver  (None, 2304)        0           ['block6q_activation[0][0]']     
 agePooling2D)                                                                                    
                                                                                                  
 block6q_se_reshape (Reshape)   (None, 1, 1, 2304)   0           ['block6q_se_squeeze[0][0]']     
                                                                                                  
 block6q_se_reduce (Conv2D)     (None, 1, 1, 96)     221280      ['block6q_se_reshape[0][0]']     
                                                                                                  
 block6q_se_expand (Conv2D)     (None, 1, 1, 2304)   223488      ['block6q_se_reduce[0][0]']      
                                                                                                  
 block6q_se_excite (Multiply)   (None, 8, 8, 2304)   0           ['block6q_activation[0][0]',     
                                                                  'block6q_se_expand[0][0]']      
                                                                                                  
 block6q_project_conv (Conv2D)  (None, 8, 8, 384)    884736      ['block6q_se_excite[0][0]']      
                                                                                                  
 block6q_project_bn (BatchNorma  (None, 8, 8, 384)   1536        ['block6q_project_conv[0][0]']   
 lization)                                                                                        
                                                                                                  
 block6q_drop (Dropout)         (None, 8, 8, 384)    0           ['block6q_project_bn[0][0]']     
                                                                                                  
 block6q_add (Add)              (None, 8, 8, 384)    0           ['block6q_drop[0][0]',           
                                                                  'block6p_add[0][0]']            
                                                                                                  
 block6r_expand_conv (Conv2D)   (None, 8, 8, 2304)   884736      ['block6q_add[0][0]']            
                                                                                                  
 block6r_expand_bn (BatchNormal  (None, 8, 8, 2304)  9216        ['block6r_expand_conv[0][0]']    
 ization)                                                                                         
                                                                                                  
 block6r_expand_activation (Act  (None, 8, 8, 2304)  0           ['block6r_expand_bn[0][0]']      
 ivation)                                                                                         
                                                                                                  
 block6r_dwconv2 (DepthwiseConv  (None, 8, 8, 2304)  20736       ['block6r_expand_activation[0][0]
 2D)                                                             ']                               
                                                                                                  
 block6r_bn (BatchNormalization  (None, 8, 8, 2304)  9216        ['block6r_dwconv2[0][0]']        
 )                                                                                                
                                                                                                  
 block6r_activation (Activation  (None, 8, 8, 2304)  0           ['block6r_bn[0][0]']             
 )                                                                                                
                                                                                                  
 block6r_se_squeeze (GlobalAver  (None, 2304)        0           ['block6r_activation[0][0]']     
 agePooling2D)                                                                                    
                                                                                                  
 block6r_se_reshape (Reshape)   (None, 1, 1, 2304)   0           ['block6r_se_squeeze[0][0]']     
                                                                                                  
 block6r_se_reduce (Conv2D)     (None, 1, 1, 96)     221280      ['block6r_se_reshape[0][0]']     
                                                                                                  
 block6r_se_expand (Conv2D)     (None, 1, 1, 2304)   223488      ['block6r_se_reduce[0][0]']      
                                                                                                  
 block6r_se_excite (Multiply)   (None, 8, 8, 2304)   0           ['block6r_activation[0][0]',     
                                                                  'block6r_se_expand[0][0]']      
                                                                                                  
 block6r_project_conv (Conv2D)  (None, 8, 8, 384)    884736      ['block6r_se_excite[0][0]']      
                                                                                                  
 block6r_project_bn (BatchNorma  (None, 8, 8, 384)   1536        ['block6r_project_conv[0][0]']   
 lization)                                                                                        
                                                                                                  
 block6r_drop (Dropout)         (None, 8, 8, 384)    0           ['block6r_project_bn[0][0]']     
                                                                                                  
 block6r_add (Add)              (None, 8, 8, 384)    0           ['block6r_drop[0][0]',           
                                                                  'block6q_add[0][0]']            
                                                                                                  
 block6s_expand_conv (Conv2D)   (None, 8, 8, 2304)   884736      ['block6r_add[0][0]']            
                                                                                                  
 block6s_expand_bn (BatchNormal  (None, 8, 8, 2304)  9216        ['block6s_expand_conv[0][0]']    
 ization)                                                                                         
                                                                                                  
 block6s_expand_activation (Act  (None, 8, 8, 2304)  0           ['block6s_expand_bn[0][0]']      
 ivation)                                                                                         
                                                                                                  
 block6s_dwconv2 (DepthwiseConv  (None, 8, 8, 2304)  20736       ['block6s_expand_activation[0][0]
 2D)                                                             ']                               
                                                                                                  
 block6s_bn (BatchNormalization  (None, 8, 8, 2304)  9216        ['block6s_dwconv2[0][0]']        
 )                                                                                                
                                                                                                  
 block6s_activation (Activation  (None, 8, 8, 2304)  0           ['block6s_bn[0][0]']             
 )                                                                                                
                                                                                                  
 block6s_se_squeeze (GlobalAver  (None, 2304)        0           ['block6s_activation[0][0]']     
 agePooling2D)                                                                                    
                                                                                                  
 block6s_se_reshape (Reshape)   (None, 1, 1, 2304)   0           ['block6s_se_squeeze[0][0]']     
                                                                                                  
 block6s_se_reduce (Conv2D)     (None, 1, 1, 96)     221280      ['block6s_se_reshape[0][0]']     
                                                                                                  
 block6s_se_expand (Conv2D)     (None, 1, 1, 2304)   223488      ['block6s_se_reduce[0][0]']      
                                                                                                  
 block6s_se_excite (Multiply)   (None, 8, 8, 2304)   0           ['block6s_activation[0][0]',     
                                                                  'block6s_se_expand[0][0]']      
                                                                                                  
 block6s_project_conv (Conv2D)  (None, 8, 8, 384)    884736      ['block6s_se_excite[0][0]']      
                                                                                                  
 block6s_project_bn (BatchNorma  (None, 8, 8, 384)   1536        ['block6s_project_conv[0][0]']   
 lization)                                                                                        
                                                                                                  
 block6s_drop (Dropout)         (None, 8, 8, 384)    0           ['block6s_project_bn[0][0]']     
                                                                                                  
 block6s_add (Add)              (None, 8, 8, 384)    0           ['block6s_drop[0][0]',           
                                                                  'block6r_add[0][0]']            
                                                                                                  
 block6t_expand_conv (Conv2D)   (None, 8, 8, 2304)   884736      ['block6s_add[0][0]']            
                                                                                                  
 block6t_expand_bn (BatchNormal  (None, 8, 8, 2304)  9216        ['block6t_expand_conv[0][0]']    
 ization)                                                                                         
                                                                                                  
 block6t_expand_activation (Act  (None, 8, 8, 2304)  0           ['block6t_expand_bn[0][0]']      
 ivation)                                                                                         
                                                                                                  
 block6t_dwconv2 (DepthwiseConv  (None, 8, 8, 2304)  20736       ['block6t_expand_activation[0][0]
 2D)                                                             ']                               
                                                                                                  
 block6t_bn (BatchNormalization  (None, 8, 8, 2304)  9216        ['block6t_dwconv2[0][0]']        
 )                                                                                                
                                                                                                  
 block6t_activation (Activation  (None, 8, 8, 2304)  0           ['block6t_bn[0][0]']             
 )                                                                                                
                                                                                                  
 block6t_se_squeeze (GlobalAver  (None, 2304)        0           ['block6t_activation[0][0]']     
 agePooling2D)                                                                                    
                                                                                                  
 block6t_se_reshape (Reshape)   (None, 1, 1, 2304)   0           ['block6t_se_squeeze[0][0]']     
                                                                                                  
 block6t_se_reduce (Conv2D)     (None, 1, 1, 96)     221280      ['block6t_se_reshape[0][0]']     
                                                                                                  
 block6t_se_expand (Conv2D)     (None, 1, 1, 2304)   223488      ['block6t_se_reduce[0][0]']      
                                                                                                  
 block6t_se_excite (Multiply)   (None, 8, 8, 2304)   0           ['block6t_activation[0][0]',     
                                                                  'block6t_se_expand[0][0]']      
                                                                                                  
 block6t_project_conv (Conv2D)  (None, 8, 8, 384)    884736      ['block6t_se_excite[0][0]']      
                                                                                                  
 block6t_project_bn (BatchNorma  (None, 8, 8, 384)   1536        ['block6t_project_conv[0][0]']   
 lization)                                                                                        
                                                                                                  
 block6t_drop (Dropout)         (None, 8, 8, 384)    0           ['block6t_project_bn[0][0]']     
                                                                                                  
 block6t_add (Add)              (None, 8, 8, 384)    0           ['block6t_drop[0][0]',           
                                                                  'block6s_add[0][0]']            
                                                                                                  
 block6u_expand_conv (Conv2D)   (None, 8, 8, 2304)   884736      ['block6t_add[0][0]']            
                                                                                                  
 block6u_expand_bn (BatchNormal  (None, 8, 8, 2304)  9216        ['block6u_expand_conv[0][0]']    
 ization)                                                                                         
                                                                                                  
 block6u_expand_activation (Act  (None, 8, 8, 2304)  0           ['block6u_expand_bn[0][0]']      
 ivation)                                                                                         
                                                                                                  
 block6u_dwconv2 (DepthwiseConv  (None, 8, 8, 2304)  20736       ['block6u_expand_activation[0][0]
 2D)                                                             ']                               
                                                                                                  
 block6u_bn (BatchNormalization  (None, 8, 8, 2304)  9216        ['block6u_dwconv2[0][0]']        
 )                                                                                                
                                                                                                  
 block6u_activation (Activation  (None, 8, 8, 2304)  0           ['block6u_bn[0][0]']             
 )                                                                                                
                                                                                                  
 block6u_se_squeeze (GlobalAver  (None, 2304)        0           ['block6u_activation[0][0]']     
 agePooling2D)                                                                                    
                                                                                                  
 block6u_se_reshape (Reshape)   (None, 1, 1, 2304)   0           ['block6u_se_squeeze[0][0]']     
                                                                                                  
 block6u_se_reduce (Conv2D)     (None, 1, 1, 96)     221280      ['block6u_se_reshape[0][0]']     
                                                                                                  
 block6u_se_expand (Conv2D)     (None, 1, 1, 2304)   223488      ['block6u_se_reduce[0][0]']      
                                                                                                  
 block6u_se_excite (Multiply)   (None, 8, 8, 2304)   0           ['block6u_activation[0][0]',     
                                                                  'block6u_se_expand[0][0]']      
                                                                                                  
 block6u_project_conv (Conv2D)  (None, 8, 8, 384)    884736      ['block6u_se_excite[0][0]']      
                                                                                                  
 block6u_project_bn (BatchNorma  (None, 8, 8, 384)   1536        ['block6u_project_conv[0][0]']   
 lization)                                                                                        
                                                                                                  
 block6u_drop (Dropout)         (None, 8, 8, 384)    0           ['block6u_project_bn[0][0]']     
                                                                                                  
 block6u_add (Add)              (None, 8, 8, 384)    0           ['block6u_drop[0][0]',           
                                                                  'block6t_add[0][0]']            
                                                                                                  
 block6v_expand_conv (Conv2D)   (None, 8, 8, 2304)   884736      ['block6u_add[0][0]']            
                                                                                                  
 block6v_expand_bn (BatchNormal  (None, 8, 8, 2304)  9216        ['block6v_expand_conv[0][0]']    
 ization)                                                                                         
                                                                                                  
 block6v_expand_activation (Act  (None, 8, 8, 2304)  0           ['block6v_expand_bn[0][0]']      
 ivation)                                                                                         
                                                                                                  
 block6v_dwconv2 (DepthwiseConv  (None, 8, 8, 2304)  20736       ['block6v_expand_activation[0][0]
 2D)                                                             ']                               
                                                                                                  
 block6v_bn (BatchNormalization  (None, 8, 8, 2304)  9216        ['block6v_dwconv2[0][0]']        
 )                                                                                                
                                                                                                  
 block6v_activation (Activation  (None, 8, 8, 2304)  0           ['block6v_bn[0][0]']             
 )                                                                                                
                                                                                                  
 block6v_se_squeeze (GlobalAver  (None, 2304)        0           ['block6v_activation[0][0]']     
 agePooling2D)                                                                                    
                                                                                                  
 block6v_se_reshape (Reshape)   (None, 1, 1, 2304)   0           ['block6v_se_squeeze[0][0]']     
                                                                                                  
 block6v_se_reduce (Conv2D)     (None, 1, 1, 96)     221280      ['block6v_se_reshape[0][0]']     
                                                                                                  
 block6v_se_expand (Conv2D)     (None, 1, 1, 2304)   223488      ['block6v_se_reduce[0][0]']      
                                                                                                  
 block6v_se_excite (Multiply)   (None, 8, 8, 2304)   0           ['block6v_activation[0][0]',     
                                                                  'block6v_se_expand[0][0]']      
                                                                                                  
 block6v_project_conv (Conv2D)  (None, 8, 8, 384)    884736      ['block6v_se_excite[0][0]']      
                                                                                                  
 block6v_project_bn (BatchNorma  (None, 8, 8, 384)   1536        ['block6v_project_conv[0][0]']   
 lization)                                                                                        
                                                                                                  
 block6v_drop (Dropout)         (None, 8, 8, 384)    0           ['block6v_project_bn[0][0]']     
                                                                                                  
 block6v_add (Add)              (None, 8, 8, 384)    0           ['block6v_drop[0][0]',           
                                                                  'block6u_add[0][0]']            
                                                                                                  
 block6w_expand_conv (Conv2D)   (None, 8, 8, 2304)   884736      ['block6v_add[0][0]']            
                                                                                                  
 block6w_expand_bn (BatchNormal  (None, 8, 8, 2304)  9216        ['block6w_expand_conv[0][0]']    
 ization)                                                                                         
                                                                                                  
 block6w_expand_activation (Act  (None, 8, 8, 2304)  0           ['block6w_expand_bn[0][0]']      
 ivation)                                                                                         
                                                                                                  
 block6w_dwconv2 (DepthwiseConv  (None, 8, 8, 2304)  20736       ['block6w_expand_activation[0][0]
 2D)                                                             ']                               
                                                                                                  
 block6w_bn (BatchNormalization  (None, 8, 8, 2304)  9216        ['block6w_dwconv2[0][0]']        
 )                                                                                                
                                                                                                  
 block6w_activation (Activation  (None, 8, 8, 2304)  0           ['block6w_bn[0][0]']             
 )                                                                                                
                                                                                                  
 block6w_se_squeeze (GlobalAver  (None, 2304)        0           ['block6w_activation[0][0]']     
 agePooling2D)                                                                                    
                                                                                                  
 block6w_se_reshape (Reshape)   (None, 1, 1, 2304)   0           ['block6w_se_squeeze[0][0]']     
                                                                                                  
 block6w_se_reduce (Conv2D)     (None, 1, 1, 96)     221280      ['block6w_se_reshape[0][0]']     
                                                                                                  
 block6w_se_expand (Conv2D)     (None, 1, 1, 2304)   223488      ['block6w_se_reduce[0][0]']      
                                                                                                  
 block6w_se_excite (Multiply)   (None, 8, 8, 2304)   0           ['block6w_activation[0][0]',     
                                                                  'block6w_se_expand[0][0]']      
                                                                                                  
 block6w_project_conv (Conv2D)  (None, 8, 8, 384)    884736      ['block6w_se_excite[0][0]']      
                                                                                                  
 block6w_project_bn (BatchNorma  (None, 8, 8, 384)   1536        ['block6w_project_conv[0][0]']   
 lization)                                                                                        
                                                                                                  
 block6w_drop (Dropout)         (None, 8, 8, 384)    0           ['block6w_project_bn[0][0]']     
                                                                                                  
 block6w_add (Add)              (None, 8, 8, 384)    0           ['block6w_drop[0][0]',           
                                                                  'block6v_add[0][0]']            
                                                                                                  
 block6x_expand_conv (Conv2D)   (None, 8, 8, 2304)   884736      ['block6w_add[0][0]']            
                                                                                                  
 block6x_expand_bn (BatchNormal  (None, 8, 8, 2304)  9216        ['block6x_expand_conv[0][0]']    
 ization)                                                                                         
                                                                                                  
 block6x_expand_activation (Act  (None, 8, 8, 2304)  0           ['block6x_expand_bn[0][0]']      
 ivation)                                                                                         
                                                                                                  
 block6x_dwconv2 (DepthwiseConv  (None, 8, 8, 2304)  20736       ['block6x_expand_activation[0][0]
 2D)                                                             ']                               
                                                                                                  
 block6x_bn (BatchNormalization  (None, 8, 8, 2304)  9216        ['block6x_dwconv2[0][0]']        
 )                                                                                                
                                                                                                  
 block6x_activation (Activation  (None, 8, 8, 2304)  0           ['block6x_bn[0][0]']             
 )                                                                                                
                                                                                                  
 block6x_se_squeeze (GlobalAver  (None, 2304)        0           ['block6x_activation[0][0]']     
 agePooling2D)                                                                                    
                                                                                                  
 block6x_se_reshape (Reshape)   (None, 1, 1, 2304)   0           ['block6x_se_squeeze[0][0]']     
                                                                                                  
 block6x_se_reduce (Conv2D)     (None, 1, 1, 96)     221280      ['block6x_se_reshape[0][0]']     
                                                                                                  
 block6x_se_expand (Conv2D)     (None, 1, 1, 2304)   223488      ['block6x_se_reduce[0][0]']      
                                                                                                  
 block6x_se_excite (Multiply)   (None, 8, 8, 2304)   0           ['block6x_activation[0][0]',     
                                                                  'block6x_se_expand[0][0]']      
                                                                                                  
 block6x_project_conv (Conv2D)  (None, 8, 8, 384)    884736      ['block6x_se_excite[0][0]']      
                                                                                                  
 block6x_project_bn (BatchNorma  (None, 8, 8, 384)   1536        ['block6x_project_conv[0][0]']   
 lization)                                                                                        
                                                                                                  
 block6x_drop (Dropout)         (None, 8, 8, 384)    0           ['block6x_project_bn[0][0]']     
                                                                                                  
 block6x_add (Add)              (None, 8, 8, 384)    0           ['block6x_drop[0][0]',           
                                                                  'block6w_add[0][0]']            
                                                                                                  
 block6y_expand_conv (Conv2D)   (None, 8, 8, 2304)   884736      ['block6x_add[0][0]']            
                                                                                                  
 block6y_expand_bn (BatchNormal  (None, 8, 8, 2304)  9216        ['block6y_expand_conv[0][0]']    
 ization)                                                                                         
                                                                                                  
 block6y_expand_activation (Act  (None, 8, 8, 2304)  0           ['block6y_expand_bn[0][0]']      
 ivation)                                                                                         
                                                                                                  
 block6y_dwconv2 (DepthwiseConv  (None, 8, 8, 2304)  20736       ['block6y_expand_activation[0][0]
 2D)                                                             ']                               
                                                                                                  
 block6y_bn (BatchNormalization  (None, 8, 8, 2304)  9216        ['block6y_dwconv2[0][0]']        
 )                                                                                                
                                                                                                  
 block6y_activation (Activation  (None, 8, 8, 2304)  0           ['block6y_bn[0][0]']             
 )                                                                                                
                                                                                                  
 block6y_se_squeeze (GlobalAver  (None, 2304)        0           ['block6y_activation[0][0]']     
 agePooling2D)                                                                                    
                                                                                                  
 block6y_se_reshape (Reshape)   (None, 1, 1, 2304)   0           ['block6y_se_squeeze[0][0]']     
                                                                                                  
 block6y_se_reduce (Conv2D)     (None, 1, 1, 96)     221280      ['block6y_se_reshape[0][0]']     
                                                                                                  
 block6y_se_expand (Conv2D)     (None, 1, 1, 2304)   223488      ['block6y_se_reduce[0][0]']      
                                                                                                  
 block6y_se_excite (Multiply)   (None, 8, 8, 2304)   0           ['block6y_activation[0][0]',     
                                                                  'block6y_se_expand[0][0]']      
                                                                                                  
 block6y_project_conv (Conv2D)  (None, 8, 8, 384)    884736      ['block6y_se_excite[0][0]']      
                                                                                                  
 block6y_project_bn (BatchNorma  (None, 8, 8, 384)   1536        ['block6y_project_conv[0][0]']   
 lization)                                                                                        
                                                                                                  
 block6y_drop (Dropout)         (None, 8, 8, 384)    0           ['block6y_project_bn[0][0]']     
                                                                                                  
 block6y_add (Add)              (None, 8, 8, 384)    0           ['block6y_drop[0][0]',           
                                                                  'block6x_add[0][0]']            
                                                                                                  
 block7a_expand_conv (Conv2D)   (None, 8, 8, 2304)   884736      ['block6y_add[0][0]']            
                                                                                                  
 block7a_expand_bn (BatchNormal  (None, 8, 8, 2304)  9216        ['block7a_expand_conv[0][0]']    
 ization)                                                                                         
                                                                                                  
 block7a_expand_activation (Act  (None, 8, 8, 2304)  0           ['block7a_expand_bn[0][0]']      
 ivation)                                                                                         
                                                                                                  
 block7a_dwconv2 (DepthwiseConv  (None, 8, 8, 2304)  20736       ['block7a_expand_activation[0][0]
 2D)                                                             ']                               
                                                                                                  
 block7a_bn (BatchNormalization  (None, 8, 8, 2304)  9216        ['block7a_dwconv2[0][0]']        
 )                                                                                                
                                                                                                  
 block7a_activation (Activation  (None, 8, 8, 2304)  0           ['block7a_bn[0][0]']             
 )                                                                                                
                                                                                                  
 block7a_se_squeeze (GlobalAver  (None, 2304)        0           ['block7a_activation[0][0]']     
 agePooling2D)                                                                                    
                                                                                                  
 block7a_se_reshape (Reshape)   (None, 1, 1, 2304)   0           ['block7a_se_squeeze[0][0]']     
                                                                                                  
 block7a_se_reduce (Conv2D)     (None, 1, 1, 96)     221280      ['block7a_se_reshape[0][0]']     
                                                                                                  
 block7a_se_expand (Conv2D)     (None, 1, 1, 2304)   223488      ['block7a_se_reduce[0][0]']      
                                                                                                  
 block7a_se_excite (Multiply)   (None, 8, 8, 2304)   0           ['block7a_activation[0][0]',     
                                                                  'block7a_se_expand[0][0]']      
                                                                                                  
 block7a_project_conv (Conv2D)  (None, 8, 8, 640)    1474560     ['block7a_se_excite[0][0]']      
                                                                                                  
 block7a_project_bn (BatchNorma  (None, 8, 8, 640)   2560        ['block7a_project_conv[0][0]']   
 lization)                                                                                        
                                                                                                  
 block7b_expand_conv (Conv2D)   (None, 8, 8, 3840)   2457600     ['block7a_project_bn[0][0]']     
                                                                                                  
 block7b_expand_bn (BatchNormal  (None, 8, 8, 3840)  15360       ['block7b_expand_conv[0][0]']    
 ization)                                                                                         
                                                                                                  
 block7b_expand_activation (Act  (None, 8, 8, 3840)  0           ['block7b_expand_bn[0][0]']      
 ivation)                                                                                         
                                                                                                  
 block7b_dwconv2 (DepthwiseConv  (None, 8, 8, 3840)  34560       ['block7b_expand_activation[0][0]
 2D)                                                             ']                               
                                                                                                  
 block7b_bn (BatchNormalization  (None, 8, 8, 3840)  15360       ['block7b_dwconv2[0][0]']        
 )                                                                                                
                                                                                                  
 block7b_activation (Activation  (None, 8, 8, 3840)  0           ['block7b_bn[0][0]']             
 )                                                                                                
                                                                                                  
 block7b_se_squeeze (GlobalAver  (None, 3840)        0           ['block7b_activation[0][0]']     
 agePooling2D)                                                                                    
                                                                                                  
 block7b_se_reshape (Reshape)   (None, 1, 1, 3840)   0           ['block7b_se_squeeze[0][0]']     
                                                                                                  
 block7b_se_reduce (Conv2D)     (None, 1, 1, 160)    614560      ['block7b_se_reshape[0][0]']     
                                                                                                  
 block7b_se_expand (Conv2D)     (None, 1, 1, 3840)   618240      ['block7b_se_reduce[0][0]']      
                                                                                                  
 block7b_se_excite (Multiply)   (None, 8, 8, 3840)   0           ['block7b_activation[0][0]',     
                                                                  'block7b_se_expand[0][0]']      
                                                                                                  
 block7b_project_conv (Conv2D)  (None, 8, 8, 640)    2457600     ['block7b_se_excite[0][0]']      
                                                                                                  
 block7b_project_bn (BatchNorma  (None, 8, 8, 640)   2560        ['block7b_project_conv[0][0]']   
 lization)                                                                                        
                                                                                                  
 block7b_drop (Dropout)         (None, 8, 8, 640)    0           ['block7b_project_bn[0][0]']     
                                                                                                  
 block7b_add (Add)              (None, 8, 8, 640)    0           ['block7b_drop[0][0]',           
                                                                  'block7a_project_bn[0][0]']     
                                                                                                  
 block7c_expand_conv (Conv2D)   (None, 8, 8, 3840)   2457600     ['block7b_add[0][0]']            
                                                                                                  
 block7c_expand_bn (BatchNormal  (None, 8, 8, 3840)  15360       ['block7c_expand_conv[0][0]']    
 ization)                                                                                         
                                                                                                  
 block7c_expand_activation (Act  (None, 8, 8, 3840)  0           ['block7c_expand_bn[0][0]']      
 ivation)                                                                                         
                                                                                                  
 block7c_dwconv2 (DepthwiseConv  (None, 8, 8, 3840)  34560       ['block7c_expand_activation[0][0]
 2D)                                                             ']                               
                                                                                                  
 block7c_bn (BatchNormalization  (None, 8, 8, 3840)  15360       ['block7c_dwconv2[0][0]']        
 )                                                                                                
                                                                                                  
 block7c_activation (Activation  (None, 8, 8, 3840)  0           ['block7c_bn[0][0]']             
 )                                                                                                
                                                                                                  
 block7c_se_squeeze (GlobalAver  (None, 3840)        0           ['block7c_activation[0][0]']     
 agePooling2D)                                                                                    
                                                                                                  
 block7c_se_reshape (Reshape)   (None, 1, 1, 3840)   0           ['block7c_se_squeeze[0][0]']     
                                                                                                  
 block7c_se_reduce (Conv2D)     (None, 1, 1, 160)    614560      ['block7c_se_reshape[0][0]']     
                                                                                                  
 block7c_se_expand (Conv2D)     (None, 1, 1, 3840)   618240      ['block7c_se_reduce[0][0]']      
                                                                                                  
 block7c_se_excite (Multiply)   (None, 8, 8, 3840)   0           ['block7c_activation[0][0]',     
                                                                  'block7c_se_expand[0][0]']      
                                                                                                  
 block7c_project_conv (Conv2D)  (None, 8, 8, 640)    2457600     ['block7c_se_excite[0][0]']      
                                                                                                  
 block7c_project_bn (BatchNorma  (None, 8, 8, 640)   2560        ['block7c_project_conv[0][0]']   
 lization)                                                                                        
                                                                                                  
 block7c_drop (Dropout)         (None, 8, 8, 640)    0           ['block7c_project_bn[0][0]']     
                                                                                                  
 block7c_add (Add)              (None, 8, 8, 640)    0           ['block7c_drop[0][0]',           
                                                                  'block7b_add[0][0]']            
                                                                                                  
 block7d_expand_conv (Conv2D)   (None, 8, 8, 3840)   2457600     ['block7c_add[0][0]']            
                                                                                                  
 block7d_expand_bn (BatchNormal  (None, 8, 8, 3840)  15360       ['block7d_expand_conv[0][0]']    
 ization)                                                                                         
                                                                                                  
 block7d_expand_activation (Act  (None, 8, 8, 3840)  0           ['block7d_expand_bn[0][0]']      
 ivation)                                                                                         
                                                                                                  
 block7d_dwconv2 (DepthwiseConv  (None, 8, 8, 3840)  34560       ['block7d_expand_activation[0][0]
 2D)                                                             ']                               
                                                                                                  
 block7d_bn (BatchNormalization  (None, 8, 8, 3840)  15360       ['block7d_dwconv2[0][0]']        
 )                                                                                                
                                                                                                  
 block7d_activation (Activation  (None, 8, 8, 3840)  0           ['block7d_bn[0][0]']             
 )                                                                                                
                                                                                                  
 block7d_se_squeeze (GlobalAver  (None, 3840)        0           ['block7d_activation[0][0]']     
 agePooling2D)                                                                                    
                                                                                                  
 block7d_se_reshape (Reshape)   (None, 1, 1, 3840)   0           ['block7d_se_squeeze[0][0]']     
                                                                                                  
 block7d_se_reduce (Conv2D)     (None, 1, 1, 160)    614560      ['block7d_se_reshape[0][0]']     
                                                                                                  
 block7d_se_expand (Conv2D)     (None, 1, 1, 3840)   618240      ['block7d_se_reduce[0][0]']      
                                                                                                  
 block7d_se_excite (Multiply)   (None, 8, 8, 3840)   0           ['block7d_activation[0][0]',     
                                                                  'block7d_se_expand[0][0]']      
                                                                                                  
 block7d_project_conv (Conv2D)  (None, 8, 8, 640)    2457600     ['block7d_se_excite[0][0]']      
                                                                                                  
 block7d_project_bn (BatchNorma  (None, 8, 8, 640)   2560        ['block7d_project_conv[0][0]']   
 lization)                                                                                        
                                                                                                  
 block7d_drop (Dropout)         (None, 8, 8, 640)    0           ['block7d_project_bn[0][0]']     
                                                                                                  
 block7d_add (Add)              (None, 8, 8, 640)    0           ['block7d_drop[0][0]',           
                                                                  'block7c_add[0][0]']            
                                                                                                  
 block7e_expand_conv (Conv2D)   (None, 8, 8, 3840)   2457600     ['block7d_add[0][0]']            
                                                                                                  
 block7e_expand_bn (BatchNormal  (None, 8, 8, 3840)  15360       ['block7e_expand_conv[0][0]']    
 ization)                                                                                         
                                                                                                  
 block7e_expand_activation (Act  (None, 8, 8, 3840)  0           ['block7e_expand_bn[0][0]']      
 ivation)                                                                                         
                                                                                                  
 block7e_dwconv2 (DepthwiseConv  (None, 8, 8, 3840)  34560       ['block7e_expand_activation[0][0]
 2D)                                                             ']                               
                                                                                                  
 block7e_bn (BatchNormalization  (None, 8, 8, 3840)  15360       ['block7e_dwconv2[0][0]']        
 )                                                                                                
                                                                                                  
 block7e_activation (Activation  (None, 8, 8, 3840)  0           ['block7e_bn[0][0]']             
 )                                                                                                
                                                                                                  
 block7e_se_squeeze (GlobalAver  (None, 3840)        0           ['block7e_activation[0][0]']     
 agePooling2D)                                                                                    
                                                                                                  
 block7e_se_reshape (Reshape)   (None, 1, 1, 3840)   0           ['block7e_se_squeeze[0][0]']     
                                                                                                  
 block7e_se_reduce (Conv2D)     (None, 1, 1, 160)    614560      ['block7e_se_reshape[0][0]']     
                                                                                                  
 block7e_se_expand (Conv2D)     (None, 1, 1, 3840)   618240      ['block7e_se_reduce[0][0]']      
                                                                                                  
 block7e_se_excite (Multiply)   (None, 8, 8, 3840)   0           ['block7e_activation[0][0]',     
                                                                  'block7e_se_expand[0][0]']      
                                                                                                  
 block7e_project_conv (Conv2D)  (None, 8, 8, 640)    2457600     ['block7e_se_excite[0][0]']      
                                                                                                  
 block7e_project_bn (BatchNorma  (None, 8, 8, 640)   2560        ['block7e_project_conv[0][0]']   
 lization)                                                                                        
                                                                                                  
 block7e_drop (Dropout)         (None, 8, 8, 640)    0           ['block7e_project_bn[0][0]']     
                                                                                                  
 block7e_add (Add)              (None, 8, 8, 640)    0           ['block7e_drop[0][0]',           
                                                                  'block7d_add[0][0]']            
                                                                                                  
 block7f_expand_conv (Conv2D)   (None, 8, 8, 3840)   2457600     ['block7e_add[0][0]']            
                                                                                                  
 block7f_expand_bn (BatchNormal  (None, 8, 8, 3840)  15360       ['block7f_expand_conv[0][0]']    
 ization)                                                                                         
                                                                                                  
 block7f_expand_activation (Act  (None, 8, 8, 3840)  0           ['block7f_expand_bn[0][0]']      
 ivation)                                                                                         
                                                                                                  
 block7f_dwconv2 (DepthwiseConv  (None, 8, 8, 3840)  34560       ['block7f_expand_activation[0][0]
 2D)                                                             ']                               
                                                                                                  
 block7f_bn (BatchNormalization  (None, 8, 8, 3840)  15360       ['block7f_dwconv2[0][0]']        
 )                                                                                                
                                                                                                  
 block7f_activation (Activation  (None, 8, 8, 3840)  0           ['block7f_bn[0][0]']             
 )                                                                                                
                                                                                                  
 block7f_se_squeeze (GlobalAver  (None, 3840)        0           ['block7f_activation[0][0]']     
 agePooling2D)                                                                                    
                                                                                                  
 block7f_se_reshape (Reshape)   (None, 1, 1, 3840)   0           ['block7f_se_squeeze[0][0]']     
                                                                                                  
 block7f_se_reduce (Conv2D)     (None, 1, 1, 160)    614560      ['block7f_se_reshape[0][0]']     
                                                                                                  
 block7f_se_expand (Conv2D)     (None, 1, 1, 3840)   618240      ['block7f_se_reduce[0][0]']      
                                                                                                  
 block7f_se_excite (Multiply)   (None, 8, 8, 3840)   0           ['block7f_activation[0][0]',     
                                                                  'block7f_se_expand[0][0]']      
                                                                                                  
 block7f_project_conv (Conv2D)  (None, 8, 8, 640)    2457600     ['block7f_se_excite[0][0]']      
                                                                                                  
 block7f_project_bn (BatchNorma  (None, 8, 8, 640)   2560        ['block7f_project_conv[0][0]']   
 lization)                                                                                        
                                                                                                  
 block7f_drop (Dropout)         (None, 8, 8, 640)    0           ['block7f_project_bn[0][0]']     
                                                                                                  
 block7f_add (Add)              (None, 8, 8, 640)    0           ['block7f_drop[0][0]',           
                                                                  'block7e_add[0][0]']            
                                                                                                  
 block7g_expand_conv (Conv2D)   (None, 8, 8, 3840)   2457600     ['block7f_add[0][0]']            
                                                                                                  
 block7g_expand_bn (BatchNormal  (None, 8, 8, 3840)  15360       ['block7g_expand_conv[0][0]']    
 ization)                                                                                         
                                                                                                  
 block7g_expand_activation (Act  (None, 8, 8, 3840)  0           ['block7g_expand_bn[0][0]']      
 ivation)                                                                                         
                                                                                                  
 block7g_dwconv2 (DepthwiseConv  (None, 8, 8, 3840)  34560       ['block7g_expand_activation[0][0]
 2D)                                                             ']                               
                                                                                                  
 block7g_bn (BatchNormalization  (None, 8, 8, 3840)  15360       ['block7g_dwconv2[0][0]']        
 )                                                                                                
                                                                                                  
 block7g_activation (Activation  (None, 8, 8, 3840)  0           ['block7g_bn[0][0]']             
 )                                                                                                
                                                                                                  
 block7g_se_squeeze (GlobalAver  (None, 3840)        0           ['block7g_activation[0][0]']     
 agePooling2D)                                                                                    
                                                                                                  
 block7g_se_reshape (Reshape)   (None, 1, 1, 3840)   0           ['block7g_se_squeeze[0][0]']     
                                                                                                  
 block7g_se_reduce (Conv2D)     (None, 1, 1, 160)    614560      ['block7g_se_reshape[0][0]']     
                                                                                                  
 block7g_se_expand (Conv2D)     (None, 1, 1, 3840)   618240      ['block7g_se_reduce[0][0]']      
                                                                                                  
 block7g_se_excite (Multiply)   (None, 8, 8, 3840)   0           ['block7g_activation[0][0]',     
                                                                  'block7g_se_expand[0][0]']      
                                                                                                  
 block7g_project_conv (Conv2D)  (None, 8, 8, 640)    2457600     ['block7g_se_excite[0][0]']      
                                                                                                  
 block7g_project_bn (BatchNorma  (None, 8, 8, 640)   2560        ['block7g_project_conv[0][0]']   
 lization)                                                                                        
                                                                                                  
 block7g_drop (Dropout)         (None, 8, 8, 640)    0           ['block7g_project_bn[0][0]']     
                                                                                                  
 block7g_add (Add)              (None, 8, 8, 640)    0           ['block7g_drop[0][0]',           
                                                                  'block7f_add[0][0]']            
                                                                                                  
 top_conv (Conv2D)              (None, 8, 8, 1280)   819200      ['block7g_add[0][0]']            
                                                                                                  
 top_bn (BatchNormalization)    (None, 8, 8, 1280)   5120        ['top_conv[0][0]']               
                                                                                                  
 top_activation (Activation)    (None, 8, 8, 1280)   0           ['top_bn[0][0]']                 
                                                                                                  
==================================================================================================
Total params: 117,746,848
Trainable params: 0
Non-trainable params: 117,746,848
__________________________________________________________________________________________________
Model: "sequential"
_________________________________________________________________
 Layer (type)                Output Shape              Param #   
=================================================================
 efficientnetv2-l (Functiona  (None, 8, 8, 1280)       117746848 
 l)                                                              
                                                                 
 global_average_pooling2d (G  (None, 1280)             0         
 lobalAveragePooling2D)                                          
                                                                 
 dense (Dense)               (None, 128)               163968    
                                                                 
 batch_normalization (BatchN  (None, 128)              512       
 ormalization)                                                   
                                                                 
 dropout (Dropout)           (None, 128)               0         
                                                                 
 dense_1 (Dense)             (None, 3)                 387       
                                                                 
=================================================================
Total params: 117,911,715
Trainable params: 164,611
Non-trainable params: 117,747,104
_________________________________________________________________
2022-12-06 23:56:03.419474: I tensorflow/core/common_runtime/gpu/gpu_device.cc:1616] Created device /device:GPU:0 with 9436 MB memory:  -> device: 0, name: NVIDIA GeForce RTX 3080 Ti, pci bus id: 0000:01:00.0, compute capability: 8.6
…
