…
2022-12-06 23:40:16.326744: I tensorflow/core/common_runtime/gpu/gpu_device.cc:1616] Created device /job:localhost/replica:0/task:0/device:GPU:0 with 9436 MB memory:  -> device: 0, name: NVIDIA GeForce RTX 3080 Ti, pci bus id: 0000:01:00.0, compute capability: 8.6
Model: "vgg19"
_________________________________________________________________
 Layer (type)                Output Shape              Param #   
=================================================================
 input_1 (InputLayer)        [(None, 256, 256, 3)]     0         
                                                                 
 block1_conv1 (Conv2D)       (None, 256, 256, 64)      1792      
                                                                 
 block1_conv2 (Conv2D)       (None, 256, 256, 64)      36928     
                                                                 
 block1_pool (MaxPooling2D)  (None, 128, 128, 64)      0         
                                                                 
 block2_conv1 (Conv2D)       (None, 128, 128, 128)     73856     
                                                                 
 block2_conv2 (Conv2D)       (None, 128, 128, 128)     147584    
                                                                 
 block2_pool (MaxPooling2D)  (None, 64, 64, 128)       0         
                                                                 
 block3_conv1 (Conv2D)       (None, 64, 64, 256)       295168    
                                                                 
 block3_conv2 (Conv2D)       (None, 64, 64, 256)       590080    
                                                                 
 block3_conv3 (Conv2D)       (None, 64, 64, 256)       590080    
                                                                 
 block3_conv4 (Conv2D)       (None, 64, 64, 256)       590080    
                                                                 
 block3_pool (MaxPooling2D)  (None, 32, 32, 256)       0         
                                                                 
 block4_conv1 (Conv2D)       (None, 32, 32, 512)       1180160   
                                                                 
 block4_conv2 (Conv2D)       (None, 32, 32, 512)       2359808   
                                                                 
 block4_conv3 (Conv2D)       (None, 32, 32, 512)       2359808   
                                                                 
 block4_conv4 (Conv2D)       (None, 32, 32, 512)       2359808   
                                                                 
 block4_pool (MaxPooling2D)  (None, 16, 16, 512)       0         
                                                                 
 block5_conv1 (Conv2D)       (None, 16, 16, 512)       2359808   
                                                                 
 block5_conv2 (Conv2D)       (None, 16, 16, 512)       2359808   
                                                                 
 block5_conv3 (Conv2D)       (None, 16, 16, 512)       2359808   
                                                                 
 block5_conv4 (Conv2D)       (None, 16, 16, 512)       2359808   
                                                                 
 block5_pool (MaxPooling2D)  (None, 8, 8, 512)         0         
                                                                 
=================================================================
Total params: 20,024,384
Trainable params: 0
Non-trainable params: 20,024,384
_________________________________________________________________
Model: "sequential"
_________________________________________________________________
 Layer (type)                Output Shape              Param #   
=================================================================
 vgg19 (Functional)          (None, 8, 8, 512)         20024384  
                                                                 
 global_average_pooling2d (G  (None, 512)              0         
 lobalAveragePooling2D)                                          
                                                                 
 dense (Dense)               (None, 128)               65664     
                                                                 
 batch_normalization (BatchN  (None, 128)              512       
 ormalization)                                                   
                                                                 
 dropout (Dropout)           (None, 128)               0         
                                                                 
 dense_1 (Dense)             (None, 3)                 387       
                                                                 
=================================================================
Total params: 20,090,947
Trainable params: 66,307
Non-trainable params: 20,024,640
_________________________________________________________________
2022-12-06 23:40:19.563132: I tensorflow/core/common_runtime/gpu/gpu_device.cc:1616] Created device /device:GPU:0 with 9436 MB memory:  -> device: 0, name: NVIDIA GeForce RTX 3080 Ti, pci bus id: 0000:01:00.0, compute capability: 8.6
…
